model_cnnnew.pth (torch, 122859 bytes, 25 tensors)

fc1.weight f4 [200, 2]
000000 71 00 00 80 77 01 00 00 1f 01 00 00 6d 00 00 80
       -1.58e-43 5.25e-43 4.02e-43 -1.53e-43
000010 8d 00 00 80 49 00 00 00 be 7c 1c 3a 81 cb 39 3b
       -1.98e-43 1.02e-43 0.0005969516 0.0028350058
000020 6d 01 00 80 74 00 00 00 a7 01 00 80 33 00 00 00
       -5.11e-43 1.63e-43 -5.93e-43 7.1e-44
000030 5d 01 00 00 93 01 00 80 a6 01 00 80 af 01 00 00
       4.89e-43 -5.65e-43 -5.91e-43 6.04e-43
000040 4e 00 00 80 23 01 00 80 f3 c6 04 bd ad 2f 54 3c
       -1.1e-43 -4.08e-43 -0.032416295 0.01295082
000050 c5 01 00 80 2a 01 00 80 e5 4c 4c 3c 7f 56 8f ba
       -6.35e-43 -4.18e-43 0.012469505 -0.0010935812
000060 49 00 00 80 ad 00 00 80 1d 01 00 00 5d 01 00 00
       -1.02e-43 -2.42e-43 4e-43 4.89e-43
000070 12 01 00 80 ff 00 00 00 b8 00 00 00 7b 01 00 00
       -3.84e-43 3.57e-43 2.58e-43 5.31e-43
000080 b4 01 00 80 36 00 00 00 01 00 00 80 47 01 00 00
       -6.11e-43 7.6e-44 -1e-45 4.58e-43
000090 13 01 00 00 d9 01 00 00 17 00 00 80 77 00 00 00
       3.85e-43 6.63e-43 -3.2e-44 1.67e-43
0000a0 ec 01 00 80 ad 01 00 00 55 01 00 80 25 01 00 00
       -6.9e-43 6.01e-43 -4.78e-43 4.1e-43
0000b0 b1 01 00 80 61 00 00 80 62 00 00 00 1c 00 00 80
       -6.07e-43 -1.36e-43 1.37e-43 -3.9e-44
0000c0 3e 00 00 80 f1 01 00 80 51 83 03 3c 04 65 5b bb
       -8.7e-44 -6.96e-43 0.008026914 -0.0033476958
0000d0 b6 1d bc ba 9c bc 32 ba c0 81 c4 bd 5a 82 43 3d
       -0.0014352116 -0.0006818266 -0.0959506 0.047731735
0000e0 7c 01 00 80 80 01 00 00 78 01 00 80 a0 01 00 80
       -5.32e-43 5.38e-43 -5.27e-43 -5.83e-43
0000f0 39 18 bd 27 d1 cb f4 2b 91 00 00 80 16 00 00 80
       5.24843e-15 1.7393813e-12 -2.03e-43 -3.1e-44
000100 56 00 00 00 26 01 00 00 27 31 65 3c b1 6f 41 bb
       1.2e-43 4.12e-43 0.01398877 -0.0029516036
000110 20 01 00 80 ea 01 00 80 36 00 00 00 4a 01 00 00
       -4.04e-43 -6.87e-43 7.6e-44 4.62e-43
000120 69 03 8a bd 27 3d df 3c 6c 81 79 3d 1e 2c 48 bd
       -0.06738932 0.02725084 0.060914442 -0.0488702
000130 39 00 00 00 b5 01 00 00 c2 2a d5 bd 7e 23 5c 3d
       8e-44 6.12e-43 -0.10408546 0.053744785
000140 e6 00 00 80 81 01 00 80 1c d0 c4 bd d7 bc 4e 3d
       -3.22e-43 -5.4e-43 -0.09610006 0.05047306
000150 bc b6 40 bc f0 a6 1c 3a fd 12 64 bc 7e 0b cc 3b
       -0.011762317 0.00059758034 -0.013920543 0.006226956
000160 af 01 00 00 35 00 00 00 7e e1 fc bb 77 6a 52 3b
       6.04e-43 7.4e-44 -0.0077173105 0.0032106915
000170 7f f7 98 3d 96 c0 11 bd c3 00 00 80 77 00 00 00
       0.07469081 -0.035584055 -2.73e-43 1.67e-43
000180 f4 01 00 80 1c 00 00 80 45 00 00 00 41 00 00 80
       -7e-43 -3.9e-44 9.7e-44 -9.1e-44
000190 c2 00 00 00 c9 00 00 80 37 30 0c bc 75 39 83 bb
       2.72e-43 -2.82e-43 -0.008556417 -0.004004652
0001a0 92 00 00 80 3e 01 00 80 1e 00 00 00 40 00 00 80
       -2.05e-43 -4.46e-43 4.2e-44 -9e-44
0001b0 00 01 00 00 93 00 00 80 9a 33 eb a1 9b 38 4f a3
       3.59e-43 -2.06e-43 -1.5937878e-18 -1.1233479e-17
0001c0 cd 49 a1 3d 30 1e 08 bd 22 46 47 bc 21 cc e4 3a
       0.078754045 -0.033231914 -0.012162717 0.0017455855
0001d0 c6 b1 8a a9 20 f5 32 aa 10 00 00 00 78 00 00 00
       -6.15927e-14 -1.5894621e-13 2.2e-44 1.68e-43
0001e0 31 01 00 00 d9 01 00 00 ab 01 00 80 00 01 00 00
       4.27e-43 6.63e-43 -5.98e-43 3.59e-43
0001f0 9a 00 00 00 e1 01 00 00 c4 01 00 00 cd 01 00 00
       2.16e-43 6.74e-43 6.33e-43 6.46e-43
000200 d7 5b c0 ba ee ce 63 bb d4 00 00 00 57 00 00 80
       -0.0014675808 -0.003476079 2.97e-43 -1.22e-43
000210 83 01 00 00 c4 00 00 80 f3 00 00 00 68 00 00 80
       5.42e-43 -2.75e-43 3.4e-43 -1.46e-43
000220 69 00 00 80 92 00 00 80 e5 00 00 80 06 01 00 80
       -1.47e-43 -2.05e-43 -3.21e-43 -3.67e-43
000230 7d 01 00 00 de 01 00 80 51 00 00 80 f0 00 00 80
       5.34e-43 -6.7e-43 -1.14e-43 -3.36e-43
000240 2b 00 00 80 c2 01 00 80 0a 00 00 00 3c 00 00 00
       -6e-44 -6.3e-43 1.4e-44 8.4e-44
000250 c6 00 00 80 e7 00 00 00 03 ea c1 3d 63 c7 18 bd
       -2.77e-43 3.24e-43 0.09468462 -0.037299525
000260 2a 01 00 80 30 01 00 80 1d 0f bc bd 0d 99 40 3d
       -4.18e-43 -4.26e-43 -0.0918257 0.04702096
000270 8d 01 00 00 20 01 00 00 b9 01 00 00 d7 00 00 80
       5.56e-43 4.04e-43 6.18e-43 -3.01e-43
000280 bb 00 00 80 c4 00 00 00 7b 01 00 80 98 00 00 00
       -2.62e-43 2.75e-43 -5.31e-43 2.13e-43
000290 8d 00 00 80 22 01 00 00 ef 00 00 80 96 01 00 80
       -1.98e-43 4.06e-43 -3.35e-43 -5.69e-43
0002a0 7b 00 00 00 49 01 00 80 f5 28 08 b6 54 c8 79 33
       1.72e-43 -4.61e-43 -2.028942e-06 5.8157028e-08
0002b0 8d 01 00 80 6e 00 00 00 2a 01 00 00 78 01 00 00
       -5.56e-43 1.54e-43 4.18e-43 5.27e-43
0002c0 1d 00 00 80 5a 00 00 80 19 87 08 bc 30 77 e0 3b
       -4e-44 -1.26e-43 -0.008332991 0.0068501458
0002d0 46 00 00 80 ab ea b6 80 4d 01 00 00 6a 01 00 00
       -9.8e-44 -1.6798243e-38 4.67e-43 5.07e-43
0002e0 93 1f ca bd 67 da 29 3d 53 00 00 80 6c 01 00 80
       -0.098693036 0.04146805 -1.16e-43 -5.1e-43
0002f0 cb 7d 73 30 66 3d e7 28 b8 00 00 80 4a 01 00 00
       8.858165e-10 2.567278e-14 -2.58e-43 4.62e-43
000300 9a 9e 3a bb ea 01 87 bb 9a ac 61 3c 2f d6 81 bb
       -0.0028475882 -0.004120101 0.013774062 -0.0039623003
000310 40 01 00 80 a2 00 00 80 26 93 d8 a1 10 94 0c 27
       -4.48e-43 -2.27e-43 -1.4675679e-18 1.9509168e-15
000320 f1 00 00 00 2b 00 00 80 96 06 3f 37 6b 21 11 37
       3.38e-43 -6e-44 1.1386021e-05 8.650454e-06
000330 a3 00 00 80 7a 01 00 80 f2 00 00 80 3c 00 00 00
       -2.28e-43 -5.3e-43 -3.39e-43 8.4e-44
000340 ce 01 00 80 00 01 00 00 a8 ad a8 bd 93 4a 3f 3d
       -6.47e-43 3.59e-43 -0.08236247 0.04670198
000350 e1 5b 2d bc e7 c5 10 3a 56 00 00 80 a4 01 00 80
       -0.010580988 0.0005522654 -1.2e-43 -5.89e-43
000360 bf e7 34 bc 17 6b d5 3b b2 01 00 80 44 01 00 80
       -0.011041581 0.0065130102 -6.08e-43 -4.54e-43
000370 3b f2 ad 3d d6 13 17 bd 17 00 00 00 a0 00 00 00
       0.084934674 -0.03688415 3.2e-44 2.24e-43
000380 e1 00 00 00 5e 01 00 00 26 01 00 80 b5 01 00 00
       3.15e-43 4.9e-43 -4.12e-43 6.12e-43
000390 ae 01 00 00 58 01 00 00 f4 e5 b0 3b 42 c5 f1 3b
       6.03e-43 4.82e-43 0.0053985063 0.0073782513
0003a0 5b 01 00 80 ef 00 00 00 ce 00 00 80 1b 01 00 00
       -4.86e-43 3.35e-43 -2.89e-43 3.97e-43
0003b0 7d 00 00 80 1e 01 00 80 29 01 00 80 cd 00 00 80
       -1.75e-43 -4.01e-43 -4.16e-43 -2.87e-43
0003c0 c1 00 00 00 1a 00 00 00 6a 01 00 00 ae 00 00 80
       2.7e-43 3.6e-44 5.07e-43 -2.44e-43
0003d0 da 00 00 00 a3 00 00 80 f6 ea 85 bc 98 8c 36 3b
       3.05e-43 -2.28e-43 -0.01634739 0.0027854796
0003e0 26 fb ff 3b 76 63 10 bb 8e 84 da bd 97 02 44 3d
       0.0078119216 -0.002203194 -0.10669814 0.047854032
0003f0 90 be 9d bd e6 9d 3d 3d 04 24 7b bb e5 f9 1d 3c
       -0.077023625 0.04629316 -0.0038321028 0.009642099

fc1.bias f4 [200]
000000 fa 00 00 00 d6 02 00 80 72 03 00 80 12 33 d8 ad
       3.5e-43 -1.017e-42 -1.236e-42 -2.4579037e-11
000010 35 03 00 80 20 02 00 80 31 01 00 00 b5 01 00 00
       -1.15e-42 -7.62e-43 4.27e-43 6.12e-43
000020 2a 03 00 00 19 e4 26 34 56 01 00 00 95 74 a0 b4
       1.135e-42 1.5542936e-07 4.79e-43 -2.9887147e-07
000030 d1 00 00 00 ea 01 00 80 ea 03 00 00 19 02 00 00
       2.93e-43 -6.87e-43 1.404e-42 7.52e-43
000040 78 04 00 80 71 01 00 80 02 04 00 80 8b 01 00 80
       -1.603e-42 -5.17e-43 -1.438e-42 -5.54e-43
000050 0b 01 00 00 d4 00 00 80 8a 02 00 80 2e 04 00 80
       3.74e-43 -2.97e-43 -9.11e-43 -1.5e-42
000060 22 01 00 80 85 e3 6d 34 91 e7 39 b3 b4 fb 6f 33
       -4.06e-43 2.2155116e-07 -4.3284277e-08 5.5875446e-08
000070 01 01 00 80 2b 00 00 00 1f 04 00 80 af 03 00 00
       -3.6e-43 6e-44 -1.478e-42 1.321e-42
000080 b2 00 00 00 9b 9d 04 34 93 03 00 00 0f 04 00 00
       2.5e-43 1.2350795e-07 1.282e-42 1.456e-42
000090 74 77 cf 32 6a d9 16 34 0e 02 00 80 1a c9 a3 b3
       2.4152293e-08 1.4048933e-07 -7.37e-43 -7.626859e-08
0000a0 87 03 00 80 ec ae fc 30 bc 4a ac b3 7b 3b 93 b4
       -1.265e-42 1.8385129e-09 -8.022968e-08 -2.7424161e-07
0000b0 be 01 00 00 b5 ce 15 b2 60 b3 c9 b3 cb 02 00 80
       6.25e-43 -8.719941e-09 -9.39242e-08 -1.002e-42
0000c0 f4 00 00 00 91 01 00 00 c1 02 00 00 c8 b7 4a 34
       3.42e-43 5.62e-43 9.88e-43 1.8879575e-07
0000d0 ab 02 00 80 99 02 00 00 8a 03 00 00 67 02 00 80
       -9.57e-43 9.32e-43 1.27e-42 -8.62e-43
0000e0 e7 66 81 33 ff 2e 19 b3 7d 02 00 00 f9 00 00 00
       6.0257484e-08 -3.566583e-08 8.93e-43 3.49e-43
0000f0 aa 03 00 80 0b 04 00 00 85 03 00 80 5b 04 00 80
       -1.314e-42 1.45e-42 -1.263e-42 -1.562e-42
000100 76 62 38 ae 77 01 00 00 1d 04 00 80 02 00 00 00
       -4.1924207e-11 5.25e-43 -1.476e-42 3e-45
000110 97 01 00 00 5f 00 00 00 68 03 00 00 94 02 00 00
       5.7e-43 1.33e-43 1.222e-42 9.25e-43
000120 eb 01 00 00 5f 02 00 00 b2 00 00 00 24 d8 82 33
       6.88e-43 8.5e-43 2.5e-43 6.0929125e-08
000130 22 01 00 80 b2 47 c9 b3 35 02 00 80 79 03 00 00
       -4.06e-43 -9.372833e-08 -7.92e-43 1.246e-42
000140 18 03 00 00 5a 03 00 00 fe 02 00 00 50 03 00 80
       1.11e-42 1.202e-42 1.073e-42 -1.188e-42
000150 d0 03 00 80 0a 01 00 00 3c 04 00 00 42 03 00 00
       -1.368e-42 3.73e-43 1.519e-42 1.169e-42
000160 71 02 00 00 d0 74 cf b3 b3 03 00 80 61 03 00 00
       8.76e-43 -9.660437e-08 -1.327e-42 1.212e-42
000170 6f 4a 42 32 82 02 00 00 1b 03 00 00 88 03 00 00
       1.13092105e-08 9e-43 1.114e-42 1.267e-42
000180 13 1d 7c 33 0c 83 60 32 9a 01 00 00 36 03 00 80
       5.8699765e-08 1.3068313e-08 5.75e-43 -1.152e-42
000190 b6 01 00 80 92 01 00 80 2d 01 00 80 a4 03 00 80
       -6.14e-43 -5.63e-43 -4.22e-43 -1.306e-42
0001a0 fd 00 00 80 d7 2b 94 b3 c9 0b 02 b4 5b 01 00 80
       -3.55e-43 -6.8997615e-08 -1.2111481e-07 -4.86e-43
0001b0 3b 4b 92 32 2e 03 00 80 52 7a dc b3 d6 02 00 00
       1.7030848e-08 -1.14e-42 -1.0266798e-07 1.017e-42
0001c0 73 01 00 00 18 01 00 80 38 02 00 80 59 b4 3e 33
       5.2e-43 -3.92e-43 -7.96e-43 4.4401848e-08
0001d0 d9 02 00 80 eb 00 00 00 70 02 00 80 32 01 00 00
       -1.022e-42 3.3e-43 -8.74e-43 4.29e-43
0001e0 4f 00 00 80 b9 00 00 80 04 04 00 00 70 dc bb b3
       -1.11e-43 -2.59e-43 1.44e-42 -8.7479634e-08
0001f0 7e 72 e7 b1 47 14 14 b2 58 be 4f b4 c7 99 94 35
       -6.736001e-09 -8.619344e-09 -1.9347624e-07 1.1071614e-06
000200 63 0e b4 b3 ea 4d 17 b2 ac 02 00 00 93 02 00 80
       -8.38452e-08 -8.807072e-09 9.58e-43 -9.23e-43
000210 72 03 00 00 d6 00 00 80 1a 02 00 80 4d 00 00 80
       1.236e-42 -3e-43 -7.54e-43 -1.08e-43
000220 f3 02 00 80 50 c5 04 b4 30 03 00 80 6e a4 fb 32
       -1.058e-42 -1.236524e-07 -1.143e-42 2.929502e-08
000230 0e 43 90 33 c3 01 00 80 45 01 00 80 38 34 c4 33
       6.71772e-08 -6.32e-43 -4.55e-43 9.13646e-08
000240 ac f7 04 33 1c 4b fc b2 41 00 00 80 6d 01 00 00
       3.09589e-08 -2.9370817e-08 -9.1e-44 5.11e-43
000250 dc 01 00 80 18 39 36 33 b2 02 00 00 be 02 00 00
       -6.67e-43 4.2427104e-08 9.67e-43 9.84e-43
000260 b5 00 00 00 32 03 00 00 07 00 00 80 38 00 00 80
       2.54e-43 1.146e-42 -1e-44 -7.8e-44
000270 35 04 00 00 4d 30 e8 b4 9b 02 00 80 55 02 00 00
       1.509e-42 -4.324851e-07 -9.35e-43 8.37e-43
000280 13 01 00 00 96 02 00 00 7e fb 78 b3 2e 03 00 00
       3.85e-43 9.28e-43 -5.797073e-08 1.14e-42
000290 4e 00 00 80 de 00 00 00 2f 00 00 00 cd 03 00 00
       -1.1e-43 3.11e-43 6.6e-44 1.363e-42
0002a0 45 01 00 00 06 02 00 00 a2 73 44 34 7f 03 00 00
       4.55e-43 7.26e-43 1.829599e-07 1.254e-42
0002b0 27 02 00 80 5b 82 4b b4 f5 e2 a0 b3 08 03 00 00
       -7.72e-43 -1.8953271e-07 -7.491864e-08 1.087e-42
0002c0 e3 02 00 00 2f ae f6 b4 be 01 00 00 9e 8e 0c 35
       1.036e-42 -4.5947806e-07 6.25e-43 5.23616e-07
0002d0 9c 02 00 00 0f 04 00 80 85 03 00 80 48 03 00 80
       9.36e-43 -1.456e-42 -1.263e-42 -1.177e-42
0002e0 49 37 33 33 c4 02 00 00 1c 00 00 80 71 00 00 00
       4.1726967e-08 9.92e-43 -3.9e-44 1.58e-43
0002f0 2a 02 00 80 d7 01 00 00 f3 01 00 00 11 01 00 00
       -7.76e-43 6.6e-43 6.99e-43 3.83e-43
000300 f6 03 00 80 b4 01 00 80 1f 1c d0 b4 b5 02 00 00
       -1.421e-42 -6.11e-43 -3.876348e-07 9.71e-43
000310 6b ae 85 b2 ab 01 00 80 f4 b6 b3 34 10 00 00 80
       -1.5562554e-08 -5.98e-43 3.3474464e-07 -2.2e-44

bn1.weight f4 [200]
000000 bb 01 00 80 d7 00 00 00 cd 01 00 80 77 8d 99 ba
       -6.21e-43 3.01e-43 -6.46e-43 -0.0011715133
000010 4e 01 00 80 cb 00 00 00 5d 01 00 00 4f 02 00 00
       -4.68e-43 2.84e-43 4.89e-43 8.28e-43
000020 6c 01 00 00 d8 29 85 3d 9c 00 00 00 e9 8d c5 3c
       5.1e-43 0.06502122 2.19e-43 0.02411552
000030 a7 01 00 80 19 01 00 00 2f 01 00 00 0f 00 00 00
       -5.93e-43 3.94e-43 4.25e-43 2.1e-44
000040 49 01 00 00 77 01 00 00 07 00 00 00 2b 01 00 80
       4.61e-43 5.25e-43 1e-44 -4.19e-43
000050 3f 01 00 00 d4 00 00 80 89 01 00 00 4c 01 00 00
       4.47e-43 -2.97e-43 5.51e-43 4.65e-43
000060 d9 01 00 80 db 2a 85 3c aa 61 8d 3b 69 7a 06 3e
       -6.63e-43 0.016255787 0.004314621 0.13132633
000070 cc 00 00 00 1f 00 00 00 3e 99 40 a1 0c 00 00 00
       2.86e-43 4.3e-44 -6.5254945e-19 1.7e-44
000080 9c 00 00 00 09 e6 ca bc c6 00 00 00 29 00 00 00
       2.19e-43 -0.024767892 2.77e-43 5.7e-44
000090 68 9a 01 3e 20 56 00 3e f0 01 00 80 46 f6 ff 3d
       0.12656558 0.12532854 -6.95e-43 0.12498145
0000a0 ae 01 00 80 bc 05 fe 3d 44 a2 9a bc dc 37 5a 3d
       -6.03e-43 0.124034375 -0.018876202 0.053275928
0000b0 72 00 00 00 b3 d3 92 bb 8c c3 fd bd 2a 00 00 80
       1.6e-43 -0.004480803 -0.12390813 -5.9e-44
0000c0 f9 00 00 80 63 00 00 00 a9 01 00 00 23 27 cc bc
       -3.49e-43 1.39e-43 5.96e-43 -0.024921006
0000d0 c8 01 00 00 62 00 00 00 99 00 00 00 4f 4f 9c b6
       6.39e-43 1.37e-43 2.14e-43 -4.658395e-06
0000e0 f5 23 f0 bd a8 27 9e bc e3 a7 18 b2 15 01 00 00
       -0.11725608 -0.019306019 -8.8857375e-09 3.88e-43
0000f0 77 00 00 00 93 01 00 80 a6 01 00 80 36 00 00 00
       1.67e-43 -5.65e-43 -5.91e-43 7.6e-44
000100 a5 dd b0 39 2d 01 00 00 23 01 00 00 52 00 00 00
       0.00033734474 4.22e-43 4.08e-43 1.15e-43
000110 90 01 00 80 ac 01 00 00 10 00 00 80 8c 00 00 80
       -5.6e-43 6e-43 -2.2e-44 -1.96e-43
000120 75 00 00 00 0b 01 00 80 4a 01 00 80 2b 83 f4 bd
       1.64e-43 -3.74e-43 -4.62e-43 -0.11939081
000130 18 01 00 00 52 48 00 3e 8a 01 00 00 de 01 00 80
       3.92e-43 0.12527588 5.52e-43 -6.7e-43
000140 ac 01 00 80 8c 01 00 80 3b 01 00 00 ab 00 00 00
       -6e-43 -5.55e-43 4.41e-43 2.4e-43
000150 2c 00 00 80 b6 11 ef b5 7d 01 00 80 0e 00 00 00
       -6.2e-44 -1.7812042e-06 -5.34e-43 2e-44
000160 77 00 00 80 2a 1a 8e bc 50 01 00 80 79 01 00 00
       -1.67e-43 -0.01734646 -4.71e-43 5.28e-43
000170 dd c2 f0 3d 50 00 00 00 66 de 92 b4 92 01 00 00
       0.11755917 1.12e-43 -2.7356435e-07 5.63e-43
000180 64 ff c5 bb ca c3 e4 bc 15 01 00 00 07 77 fc 03
       -0.006042408 -0.02792539 3.88e-43 1.4838556e-36
000190 e0 00 00 80 58 dd b0 ba 9b 01 00 00 9a 01 00 80
       -3.14e-43 -0.00134937 5.76e-43 -5.75e-43
0001a0 f2 01 00 00 b4 60 e4 3d b9 7b a0 3c 5e 01 00 80
       6.98e-43 0.11151257 0.019590246 -4.9e-43
0001b0 70 70 db 3c 5b 00 00 00 86 dc d7 bd 20 01 00 00
       0.026787013 1.28e-43 -0.105401084 4.04e-43
0001c0 85 00 00 80 c9 00 00 00 b6 01 00 80 99 ea 88 3c
       -1.86e-43 2.82e-43 -6.14e-43 0.016713427
0001d0 82 01 00 00 75 00 00 80 1d 00 00 80 39 01 00 00
       5.41e-43 -1.64e-43 -4e-44 4.39e-43
0001e0 53 01 00 00 c4 00 00 00 a2 01 00 00 85 ed a8 bc
       4.75e-43 2.75e-43 5.86e-43 -0.02062107
0001f0 53 28 16 3c e7 62 f6 3d 09 ab cd bd 32 e9 05 3d
       0.0091648875 0.12030583 -0.10042388 0.032693096
000200 21 6d 82 3c d9 11 81 3c 2d 00 00 00 fe 00 00 00
       0.015921177 0.01575558 6.3e-44 3.56e-43
000210 b1 01 00 00 75 01 00 00 b9 00 00 00 ce 00 00 80
       6.07e-43 5.23e-43 2.59e-43 -2.89e-43
000220 0c 00 00 80 fe c9 e0 3c ff e0 ae 1b 5f 22 d3 3d
       -1.7e-44 0.027440067 2.8931286e-22 0.1030929
000230 21 85 01 3d 6a 01 00 00 6e 01 00 00 9d 42 1c 3d
       0.031621102 5.07e-43 5.13e-43 0.038149465
000240 fb de 03 bc 8b 7c ed bd 90 01 00 80 e2 01 00 00
       -0.008048768 -0.1159602 -5.6e-43 6.75e-43
000250 ef 00 00 00 4d d8 f0 3d 5f 00 00 00 1f 2c a5 b8
       3.35e-43 0.11760006 1.33e-43 -7.876031e-05
000260 7d 00 00 00 ab 42 a6 ae 63 00 00 00 7a 01 00 00
       1.75e-43 -7.5606486e-11 1.39e-43 5.3e-43
000270 bb 01 00 00 6d 6e dc bb bb 00 00 00 c1 3c 29 b9
       6.21e-43 -0.006727031 2.62e-43 -0.00016139729
000280 6b 00 00 00 69 01 00 80 4d 7a ed bd 8e 01 00 80
       1.5e-43 -5.06e-43 -0.11595593 -5.58e-43
000290 6a 01 00 00 53 01 00 80 1f 01 00 00 07 00 00 00
       5.07e-43 -4.75e-43 4.02e-43 1e-44
0002a0 f5 00 00 00 a1 57 32 b9 d7 1d 37 bc 51 01 00 80
       3.43e-43 -0.00017008047 -0.011176548 -4.72e-43
0002b0 22 00 00 80 db 19 cc bc 58 56 dd bc 7f 00 00 80
       -4.8e-44 -0.024914673 -0.027018711 -1.78e-43
0002c0 e0 01 00 80 0b 32 dd 3d 14 01 00 00 12 91 a8 3c
       -6.73e-43 0.108005606 3.87e-43 0.020576987
0002d0 95 00 00 80 9f 01 00 00 37 00 00 00 4a 01 00 00
       -2.09e-43 5.82e-43 7.7e-44 4.62e-43
0002e0 63 29 ca bc 25 02 00 00 11 00 00 80 8f 00 00 00
       -0.024677938 7.7e-43 -2.4e-44 2e-43
0002f0 3e 01 00 00 14 00 00 00 e8 00 00 80 1b 01 00 80
       4.46e-43 2.8e-44 -3.25e-43 -3.97e-43
000300 63 00 00 00 fd 30 0a b7 93 a5 23 3d 73 01 00 00
       1.39e-43 -8.236847e-06 0.039952826 5.2e-43
000310 79 cc fe 3b 18 00 00 00 b2 41 11 bd 66 00 00 00
       0.00777584 3.4e-44 -0.035463043 1.43e-43

bn1.bias f4 [200]
000000 2e 22 1e 81 83 62 7b 9f 6e 85 06 8a 47 9d 35 bb
       -2.904454e-38 -5.3232804e-20 -6.476961e-33 -0.0027712153
000010 6f b9 3d 87 0d a9 b4 96 75 c9 f3 b8 3e 83 6d b4
       -1.4273274e-34 -2.9187254e-25 -0.00011624667 -2.212009e-07
000020 5c 81 03 94 37 80 56 3c f1 00 00 80 2d 6d 17 3c
       -6.6393215e-27 0.013092092 -3.38e-43 0.009242338
000030 09 fb 1f b4 21 00 00 80 f3 bf 43 86 ab 54 e7 b0
       -1.4899355e-07 -4.6e-44 -3.6816446e-35 -1.6831526e-09
000040 8c 2c e1 b6 7a 35 e0 a9 1a cd 94 ab d7 f1 ed 89
       -6.7107085e-06 -9.956875e-14 -1.057296e-12 -5.72831e-33
000050 6c 91 19 9f e6 cd 5c a1 8d a7 d2 8a 94 a8 9f 9d
       -3.25193e-20 -7.4811404e-19 -2.028529e-32 -4.2261255e-21
000060 2f 69 1d ae 0f ab b1 3b a0 6c 03 3b f6 28 3e 3a
       -3.579109e-11 0.005422003 0.002005376 0.00072540285
000070 82 00 8c 95 e7 18 00 80 6e a9 94 ad 54 a4 45 ae
       -5.654635e-26 -8.933e-42 -1.6900894e-11 -4.4938567e-11
000080 62 50 26 85 f5 ff 40 3c 42 dd 8c a9 cd 01 00 80
       -7.8200465e-36 0.011779775 -6.255631e-14 -6.46e-43
000090 91 b9 44 bc 32 98 a7 bd fa d1 22 9c ad b2 08 3c
       -0.012007133 -0.08183326 -5.387269e-22 0.008343381
0000a0 a5 96 33 b4 1d 1a c9 3c 40 a2 ab 3b e0 26 3c 3b
       -1.6725478e-07 0.024548585 0.0052378476 0.0028709695
0000b0 e1 92 03 93 8c e6 5e 3c 18 ea ac 3c 71 d8 34 b6
       -1.6606941e-27 0.013604771 0.021107718 -2.6948076e-06
0000c0 1a 6a 36 80 84 1c 00 80 1a 03 2c 89 4a 76 28 ba
       -4.997179e-39 -1.023e-41 -2.0705205e-33 -0.0006426318
0000d0 14 56 28 a7 af 5e 8f 86 c6 67 9f ba 05 d5 4f b9
       -2.3361347e-15 -5.3929747e-35 -0.0012161664 -0.00019820414
0000e0 ee 07 47 ba 71 fd 33 3c 3f 51 f1 b2 c9 fd 00 80
       -0.0007592429 0.010985718 -2.8093039e-08 -9.1041e-41
0000f0 1e 43 5d a0 6b 00 00 80 4e cd 00 80 96 0a 32 b8
       -1.8741635e-19 -1.5e-43 -7.365e-41 -4.2448366e-05
000100 04 17 27 ba 53 ae 37 85 50 07 00 80 25 6a 05 81
       -0.0006373974 -8.636637e-36 -2.623e-42 -2.4504397e-38
000110 cd 73 e3 b3 47 ec 85 97 97 9d 2f 8e a2 02 00 80
       -1.0591575e-07 -8.654568e-25 -2.1646292e-30 -9.44e-43
000120 26 69 42 95 75 35 5b b1 f3 40 50 8a c4 d6 22 3d
       -3.9260935e-26 -3.1899081e-09 -1.0027051e-32 0.039755598
000130 fc 27 aa 84 e1 a0 99 3c 22 63 ca ba be 14 1a 99
       -4.0003528e-36 0.01875347 -0.0015440921 -7.965802e-24
000140 fd fa 26 88 d1 ba 72 ac 2d 52 26 8a a0 4f 81 8a
       -5.0248843e-34 -3.4493972e-12 -8.008065e-33 -1.24522e-32
000150 94 05 00 80 9a 9c 29 b8 ea fe 81 92 87 88 d0 a8
       -2.001e-42 -4.0438586e-05 -8.203886e-28 -2.3151848e-14
000160 0d ae 84 9c 36 37 00 3b 04 17 52 86 54 00 00 80
       -8.780018e-22 0.0019564158 -3.951352e-35 -1.18e-43
000170 db 7d aa 3c c1 1d 63 b1 79 aa ea b8 7a 79 84 81
       0.020811966 -3.304976e-09 -0.000111897425 -4.866345e-38
000180 85 fb e0 3a 6b 1d 89 3c a3 c6 c2 b9 ad 93 d6 a4
       0.0017164802 0.01673766 -0.0003715056 -9.305788e-17
000190 49 b0 bf 9d a5 0f 11 bb 7a 16 e5 98 f3 a3 9a 9b
       -5.0739554e-21 -0.002213457 -5.921781e-24 -2.5583113e-22
0001a0 93 8e 00 80 82 f3 34 3d 85 77 06 3c ca 4f 8a a5
       -5.1146e-41 0.04417754 0.008207207 -2.399325e-16
0001b0 89 f3 52 3c 7f 6a 07 b8 e2 dc 7f 3d f3 05 72 85
       0.012875446 -3.228569e-05 0.06246651 -1.1379878e-35
0001c0 f4 f2 9b 8e 01 09 00 80 48 72 ab aa c2 65 8b ba
       -3.8444405e-30 -3.23e-42 -3.0455e-13 -0.0010635185
0001d0 1b 9f 82 a0 aa 14 0a 9f 72 e2 00 80 d0 4c 04 80
       -2.2128144e-19 -2.923973e-20 -8.1233e-41 -3.94897e-40
0001e0 d5 41 22 a0 67 5d 9e 81 5c f4 8a ab 52 a2 5c 3c
       -1.3743716e-19 -5.817406e-38 -9.873313e-13 0.013466435
0001f0 00 f1 20 3c 42 3c 2f 3c c3 c8 80 bd 79 c6 bf 3a
       0.009823084 0.010695519 -0.06288292 0.0014631293
000200 6e dc e9 38 60 6f 0b 3c 7c 14 07 80 45 00 00 80
       0.00011151364 0.008510441 -6.50197e-40 -9.7e-44
000210 10 57 09 b4 18 b5 43 9f 8f 08 00 80 64 bc 96 af
       -1.2790792e-07 -4.1442653e-20 -3.07e-42 -2.74187e-10
000220 65 04 00 80 39 6f 9d bb b5 a5 b8 a7 ef 92 87 3d
       -1.576e-42 -0.0048045185 -5.124992e-15 0.06619822
000230 e4 c9 25 3c 6f 06 00 80 15 8b 93 b6 27 00 cb 3c
       0.010118935 -2.308e-42 -4.3971327e-06 0.024780346
000240 ed 5b 87 bb 00 13 85 3c c7 9b 11 b6 39 38 37 b4
       -0.0041308315 0.016244411 -2.1697358e-06 -1.7063657e-07
000250 fe 58 5d 8a 28 af 2c 3d 26 00 00 80 00 09 37 ba
       -1.06575005e-32 0.04215923 -5.3e-44 -0.0006982237
000260 a6 bb 00 80 50 72 9e b7 0b 2f 00 80 e9 f7 00 80
       -6.7316e-41 -1.8888299e-05 -1.6876e-41 -8.8933e-41
000270 bd 00 00 80 0d e7 df 3b f5 ca 98 a8 c4 89 4d ba
       -2.65e-43 0.0068329633 -1.6963409e-14 -0.0007840658
000280 62 71 8f b9 e3 9c ba b3 ef cf 73 3d 0b ea 22 a5
       -0.00027359562 -8.6898375e-08 0.059524473 -1.4130557e-16
000290 bc 1a 2a a7 1c fd 7a 89 f9 cb 9b 80 1e 4c 60 b9
       -2.3606732e-15 -3.0211667e-33 -1.4307674e-38 -0.0002139066
0002a0 90 00 00 80 97 d4 04 ba 6e 82 55 3b d2 d0 c0 9a
       -2.02e-43 -0.0005067079 0.0032578963 -7.9746706e-23
0002b0 b8 93 b7 9a 46 a3 b8 3b 63 52 40 bb 39 06 00 80
       -7.592568e-23 0.005634698 -0.0029345981 -2.232e-42
0002c0 7a 82 b0 b5 7f 44 94 bd 23 41 43 9e 81 2e 08 3c
       -1.3150996e-06 -0.07239627 -1.0336684e-20 0.008311869
0002d0 6e 01 00 80 80 52 7e 81 35 0b e9 9d 5d 64 c2 ac
       -5.13e-43 -4.6711623e-38 -6.1686174e-21 -5.524954e-12
0002e0 29 c3 2a 3c 6c f4 50 a0 af 0c 0e b5 87 fe 4b b2
       0.010422506 -1.7699158e-19 -5.291758e-07 -1.1874028e-08
0002f0 15 14 26 bb 04 87 01 80 49 c8 94 ad 63 c0 e1 a9
       -0.002534156 -1.4027e-40 -1.6914596e-11 -1.0025381e-13
000300 28 35 03 80 3e ac 41 b9 7a e2 41 bc bd 08 5f b9
       -2.94575e-40 -0.0001847008 -0.011833781 -0.00021270193
000310 2a 08 1e 3b ff 17 00 80 ed a6 07 3c 06 01 00 80
       0.0024113753 -8.608e-42 0.008279544 -3.67e-43

bn1.running_mean f4 [200]
000000 f7 09 01 00 6e 2f 00 80 e0 2f 00 80 36 54 06 3f
       9.541e-41 -1.7015e-41 -1.7174e-41 0.52472246
000010 74 27 00 80 2e 45 00 00 29 91 00 80 d6 7c 00 00
       -1.4153e-41 2.4817e-41 -5.2074e-41 4.4783e-41
000020 20 ea 00 80 20 e5 5e be 70 28 01 80 6d e2 3d 3f
       -8.3988e-41 -0.21767092 -1.06342e-40 0.74173623
000030 aa 9e 00 80 b5 44 01 00 80 06 00 00 aa 2a 01 00
       -5.6918e-41 1.16483e-40 2.332e-42 1.0714e-40
000040 53 5d 00 80 32 d5 00 00 b9 5d 01 00 c7 9a 00 00
       -3.3478e-41 7.648e-41 1.25457e-40 5.5524e-41
000050 00 81 00 00 ee 72 00 00 3d d0 00 80 23 b3 00 00
       4.6276e-41 4.1229e-41 -7.4702e-41 6.4262e-41
000060 1d 6c 00 80 03 a7 f4 3c 7f 48 63 be 54 be 72 3f
       -3.8784e-41 0.029864794 -0.22195624 0.9482167
000070 10 98 00 00 0d 85 01 80 f3 bb a2 2f 15 19 00 00
       5.455e-41 -1.39565e-40 2.9601174e-10 8.998e-42
000080 c6 54 00 00 ec 3f 0a 3f ef f5 00 80 a4 e3 00 00
       3.0411e-41 0.5400379 -8.8224e-41 8.1662e-41
000090 a7 2e cb be 9d d4 6f c0 b8 f0 00 00 ef 5c ae 3f
       -0.3968403 -3.747352 8.6354e-41 1.3622111
0000a0 28 35 01 80 63 69 b3 3f 98 08 46 bf 20 43 a0 3c
       -1.10904e-40 1.4016536 -0.77356863 0.019563258
0000b0 5d 20 00 00 01 bd f6 bc 67 2d f2 be c8 37 00 80
       1.161e-41 -0.030119421 -0.47300264 -2.001e-41
0000c0 4e 06 01 80 47 12 00 80 5b 51 00 00 97 46 a8 bf
       -9.4097e-41 -6.557e-42 2.9185e-41 -1.3146542
0000d0 e0 02 01 80 63 28 00 80 f2 20 00 80 f8 98 12 a7
       -9.2867e-41 -1.4488e-41 -1.1819e-41 -2.0344495e-15
0000e0 00 da 69 3e 0b d3 1b bf 29 14 0b ae 07 55 00 00
       0.22837067 -0.608689 -3.1622847e-11 3.0502e-41
0000f0 5c 45 01 00 2b 70 00 00 a5 15 01 00 e5 8e 01 00
       1.16717e-40 4.0238e-41 9.96e-41 1.43096e-40
000100 75 b4 32 bf ea 12 00 00 45 1e 00 80 3f 13 00 80
       -0.69806606 6.785e-42 -1.0859e-41 -6.904e-42
000110 49 5e 00 80 78 9b 00 80 1c 90 00 80 17 b3 00 80
       -3.3823e-41 -5.5772e-41 -5.1697e-41 -6.4245e-41
000120 f3 f1 00 80 19 02 00 80 2b ee 00 00 2d 73 39 3f
       -8.6795e-41 -7.52e-43 8.5439e-41 0.7244137
000130 8b 02 00 00 51 54 91 3f 37 53 01 00 9a 30 00 00
       9.12e-43 1.1353856 1.21687e-40 1.7435e-41
000140 4c 7d 00 00 24 46 00 00 24 9f 00 00 ee 3f 01 80
       4.4948e-41 2.5162e-41 5.7089e-41 -1.14769e-40
000150 e5 d6 00 80 b3 0a 14 b9 31 22 00 80 2d 55 01 00
       -7.709e-41 -0.00014118366 -1.2266e-41 1.22391e-40
000160 5d 17 00 80 70 66 0a 3f f7 61 74 84 15 1e 01 00
       -8.381e-42 0.5406256 -2.8727045e-36 1.02627e-40
000170 3a d2 a1 be 1b 89 00 80 30 df 8d 33 bc cf 00 00
       -0.31605703 -4.9184e-41 6.606422e-08 7.4521e-41
000180 00 da 68 bf cb 89 b4 3e 63 9d 00 80 a4 ba ba 2a
       -0.9095764 0.35261378 -5.646e-41 3.3169745e-13
000190 25 22 00 00 f9 b1 17 3b 2e 17 01 80 74 47 00 80
       1.2249e-41 0.0023146851 -1.00151e-40 -2.5633e-41
0001a0 6f 59 00 00 32 82 e4 3f 6f 6d 31 bf 77 f1 00 80
       3.2083e-41 1.7852232 -0.6930761 -8.6621e-41
0001b0 96 91 90 3e 36 71 01 80 f5 60 8d 3d ab 6f 00 00
       0.28236073 -1.32448e-40 0.06903259 4.0059e-41
0001c0 17 1e 01 00 72 ab 00 00 af 3a 01 00 0f 58 d3 3f
       1.0263e-40 6.1503e-41 1.12887e-40 1.6511248
0001d0 a9 1e 00 80 13 79 00 00 8e cc 00 80 b2 e2 00 80
       -1.0999e-41 4.3433e-41 -7.338e-41 -8.1323e-41
0001e0 49 14 00 00 6e 60 00 80 19 1c 00 00 f9 5f 3e bf
       7.277e-42 -3.4592e-41 1.008e-41 -0.7436519
0001f0 de b1 54 3e fc 8d 2d 3e c2 3f 07 40 88 8d ac 3f
       0.20770976 0.16948694 2.1132665 1.3480692
000200 ea f7 69 3f 54 a7 c4 bf 4a 86 01 00 67 af 00 00
       0.9139391 -1.5363564 1.4001e-40 6.2923e-41
000210 54 05 01 80 e6 1c 00 00 0c ab 00 80 6c 66 01 00
       -9.3747e-41 1.0367e-41 -6.136e-41 1.28578e-40
000220 a5 65 00 00 ee 85 c5 3f a3 1b ab b0 ed e2 80 3f
       3.6463e-41 1.5431497 -1.2449742e-09 1.0069252
000230 c0 61 7d be 34 7d 00 00 07 19 00 00 08 a2 d0 3e
       -0.2474432 4.4914e-41 8.978e-42 0.4074862
000240 c2 6b 9c 3f f6 9b 4b bf 55 5d 00 00 5e 3a 00 80
       1.2220385 -0.7953485 3.3481e-41 -2.0938e-41
000250 84 df 00 00 86 2c 09 3f 75 36 00 00 61 72 2b bd
       8.0182e-41 0.5358356 1.9536e-41 -0.041857127
000260 bc 31 00 00 73 a9 32 21 21 e1 00 80 16 8c 00 80
       1.7841e-41 6.053301e-19 -8.0761e-41 -5.0253e-41
000270 4f 53 00 80 b1 65 58 3f 6e f5 00 80 68 1e b8 39
       -2.9885e-41 0.8453017 -8.8044e-41 0.0003511787
000280 80 fe 14 0c 97 a5 00 80 15 73 c2 bf f5 b1 00 00
       1.1478091e-31 -5.9402e-41 -1.519137 6.3839e-41
000290 b0 3c 01 80 4b 5d 00 00 8d 09 01 00 3e 6f 00 00
       -1.13606e-40 3.3467e-41 9.5262e-41 3.9906e-41
0002a0 d8 d7 00 80 40 95 7d 3c d7 ef bc bf 29 e0 00 00
       -7.743e-41 0.0154774785 -1.4760693 8.0414e-41
0002b0 76 04 c0 9d 4f 0b d2 bf 60 28 a6 bf 4c fe 00 80
       -5.082659e-21 -1.6409701 -1.2981071 -9.1225e-41
0002c0 77 c0 00 80 ec e0 98 3f 8e fe 00 00 e3 7b 16 bf
       -6.9043e-41 1.1943641 9.1317e-41 -0.58782786
0002d0 89 63 01 80 e5 37 00 80 8f 06 00 80 89 46 00 80
       -1.27542e-40 -2.0051e-41 -2.353e-42 -2.5303e-41
0002e0 2e 7e ad be 90 33 01 00 01 21 00 80 3f 56 00 80
       -0.3388533 1.10333e-40 -1.184e-41 -3.0939e-41
0002f0 8a 74 00 00 30 3c 00 00 26 24 00 80 d0 ee 00 80
       4.1806e-41 2.1591e-41 -1.2968e-41 -8.567e-41
000300 90 b1 00 00 7b 5e 91 b8 12 33 47 3f 1d 59 01 80
       6.3697e-41 -6.931737e-05 0.778123 -1.23803e-40
000310 51 46 ad 3d 02 d6 00 80 ae 96 8b 3e 02 dc 00 80
       0.084606774 -7.6772e-41 0.27263397 -7.8924e-41

bn1.running_var f4 [200]
000000 04 00 00 00 04 00 00 00 04 00 00 00 70 91 b6 3a
       6e-45 6e-45 6e-45 0.0013928842
000010 04 00 00 00 04 00 00 00 04 00 00 00 04 00 00 00
       6e-45 6e-45 6e-45 6e-45
000020 04 00 00 00 0c 22 0a 3e 04 00 00 00 55 19 00 3d
       6e-45 0.1348955 6e-45 0.03127416
000030 04 00 00 00 04 00 00 00 04 00 00 00 04 00 00 00
       6e-45 6e-45 6e-45 6e-45
000040 04 00 00 00 04 00 00 00 04 00 00 00 04 00 00 00
       6e-45 6e-45 6e-45 6e-45
000050 04 00 00 00 04 00 00 00 04 00 00 00 04 00 00 00
       6e-45 6e-45 6e-45 6e-45
000060 04 00 00 00 a0 c4 03 3c 27 3a 4f 3a 6b 2d 81 3f
       6e-45 0.0080424845 0.0007905089 1.0091985
000070 04 00 00 00 04 00 00 00 f4 fa bf 1b 04 00 00 00
       6e-45 6e-45 3.1760474e-22 6e-45
000080 04 00 00 00 e4 32 08 3d 04 00 00 00 04 00 00 00
       6e-45 0.033251658 6e-45 6e-45
000090 d7 19 14 3f 5d 20 73 3e 04 00 00 00 cc 4c 93 3f
       0.5785193 0.23742814 6e-45 1.1507812
0000a0 04 00 00 00 07 73 77 3f fd 55 ef 3c 5f cb bc 3c
       6e-45 0.9665989 0.029215807 0.023046194
0000b0 04 00 00 00 da 08 f4 3b e1 04 22 3f 04 00 00 00
       6e-45 0.0074473443 0.63288695 6e-45
0000c0 04 00 00 00 04 00 00 00 04 00 00 00 6b 7e e4 3c
       6e-45 6e-45 6e-45 0.027892312
0000d0 04 00 00 00 04 00 00 00 04 00 00 00 97 d1 c4 0a
       6e-45 6e-45 6e-45 1.8952952e-32
0000e0 92 af 44 3f a6 2f e2 3c 0f 8a f3 18 04 00 00 00
       0.768304 0.027610611 6.295343e-24 6e-45
0000f0 04 00 00 00 04 00 00 00 04 00 00 00 04 00 00 00
       6e-45 6e-45 6e-45 6e-45
000100 52 bf 50 3b 04 00 00 00 04 00 00 00 04 00 00 00
       0.0031852317 6e-45 6e-45 6e-45
000110 04 00 00 00 04 00 00 00 04 00 00 00 04 00 00 00
       6e-45 6e-45 6e-45 6e-45
000120 04 00 00 00 04 00 00 00 04 00 00 00 4a 95 94 3f
       6e-45 6e-45 6e-45 1.160806
000130 04 00 00 00 49 eb 66 3f 04 00 00 00 04 00 00 00
       6e-45 0.90202767 6e-45 6e-45
000140 04 00 00 00 04 00 00 00 04 00 00 00 04 00 00 00
       6e-45 6e-45 6e-45 6e-45
000150 04 00 00 00 53 55 76 30 04 00 00 00 04 00 00 00
       6e-45 8.961553e-10 6e-45 6e-45
000160 04 00 00 00 f0 56 8c 3b 04 00 00 00 04 00 00 00
       6e-45 0.0042828247 6e-45 6e-45
000170 33 e1 9a 3f 04 00 00 00 38 f0 4c 25 04 00 00 00
       1.2099975 6e-45 1.7775569e-16 6e-45
000180 ed a4 e2 3b 7f 53 ec 3c 04 00 00 00 97 fe fa 11
       0.0069166333 0.028848408 6e-45 3.9599948e-28
000190 04 00 00 00 06 b8 8b 33 04 00 00 00 04 00 00 00
       6e-45 6.5061656e-08 6e-45 6e-45
0001a0 04 00 00 00 8a 4f 29 3f 94 3e c1 3c 04 00 00 00
       6e-45 0.6613699 0.02358941 6e-45
0001b0 37 23 3b 3c 04 00 00 00 aa 4f 60 3f 04 00 00 00
       0.01142197 6e-45 0.8762156 6e-45
0001c0 04 00 00 00 04 00 00 00 04 00 00 00 d2 a2 c0 3c
       6e-45 6e-45 6e-45 0.023515139
0001d0 04 00 00 00 04 00 00 00 04 00 00 00 04 00 00 00
       6e-45 6e-45 6e-45 6e-45
0001e0 04 00 00 00 04 00 00 00 04 00 00 00 4b e4 44 3d
       6e-45 6e-45 6e-45 0.04806928
0001f0 10 63 19 3c 14 07 ad 3f 36 a2 0b 3f 11 fc 1e 3b
       0.009361997 1.3517785 0.5454439 0.002425913
000200 be c1 d5 3c dd b5 9a 3c 04 00 00 00 04 00 00 00
       0.02609336 0.018885547 6e-45 6e-45
000210 04 00 00 00 04 00 00 00 04 00 00 00 04 00 00 00
       6e-45 6e-45 6e-45 6e-45
000220 04 00 00 00 31 a3 0e 3d 4d eb d4 1d cb 1a 44 3f
       6e-45 0.0348236 5.635923e-21 0.7660338
000230 b8 cc 8d 3c 04 00 00 00 04 00 00 00 3a df 8f 3d
       0.017309532 6e-45 6e-45 0.07024999
000240 05 d8 c3 3b a0 45 1f 3f 04 00 00 00 04 00 00 00
       0.0059766793 0.62215614 6e-45 6e-45
000250 04 00 00 00 c8 0b 8c 3f 04 00 00 00 5d c2 71 37
       6e-45 1.0941095 6e-45 1.4409973e-05
000260 04 00 00 00 30 82 a2 00 04 00 00 00 04 00 00 00
       6e-45 1.4924053e-38 6e-45 6e-45
000270 04 00 00 00 03 73 34 3a 04 00 00 00 ba a8 ac 31
       6e-45 0.0006883593 6e-45 5.025041e-09
000280 04 00 00 00 04 00 00 00 3f 6c 33 3f 04 00 00 00
       6e-45 6e-45 0.70087045 6e-45
000290 04 00 00 00 04 00 00 00 04 00 00 00 04 00 00 00
       6e-45 6e-45 6e-45 6e-45
0002a0 04 00 00 00 3f 6c 23 37 79 df c6 3b 04 00 00 00
       6e-45 9.74076e-06 0.0060691205 6e-45
0002b0 41 00 00 00 0e f3 b9 3c 04 84 4c 3d 04 00 00 00
       9.1e-44 0.022698905 0.049930587 6e-45
0002c0 04 00 00 00 77 cd 52 3e 04 00 00 00 08 e1 82 3b
       6e-45 0.20586191 6e-45 0.003994111
0002d0 04 00 00 00 04 00 00 00 04 00 00 00 04 00 00 00
       6e-45 6e-45 6e-45 6e-45
0002e0 d7 ce e8 3c 04 00 00 00 04 00 00 00 04 00 00 00
       0.028418941 6e-45 6e-45 6e-45
0002f0 04 00 00 00 04 00 00 00 04 00 00 00 04 00 00 00
       6e-45 6e-45 6e-45 6e-45
000300 04 00 00 00 1a a3 95 2d d5 62 3f 3d 04 00 00 00
       6e-45 1.701177e-11 0.046725113 6e-45
000310 ac 55 fa 3b 04 00 00 00 0c 99 b5 3c 04 00 00 00
       0.0076396074 6e-45 0.022167705 6e-45

fc2.weight f4 [100, 200]
000000 cf 02 00 00 3a 01 00 00 61 02 00 00 f7 08 49 34
       1.008e-42 4.4e-43 8.53e-43 1.8722845e-07
000010 86 01 00 00 5a 01 00 00 d4 01 00 00 b7 00 00 80
       5.47e-43 4.85e-43 6.56e-43 -2.56e-43
000020 98 01 00 80 b7 c3 1b 3b 3c 00 00 00 3d 09 6f 3b
       -5.72e-43 0.0023767778 8.4e-44 0.0036474012
000030 d4 00 00 00 ff 01 00 80 87 00 00 00 ee 00 00 80
       2.97e-43 -7.16e-43 1.89e-43 -3.34e-43
000040 e4 01 00 80 77 01 00 00 1a 01 00 00 ff 00 00 00
       -6.78e-43 5.25e-43 3.95e-43 3.57e-43
000050 8f 01 00 80 32 01 00 00 d4 01 00 80 9f 00 00 00
       -5.59e-43 4.29e-43 -6.56e-43 2.23e-43
000060 bc 02 00 00 af 67 45 3b b1 3a 9d ba 8f 10 10 bb
       9.81e-43 0.0030121615 -0.0011995641 -0.0021982526
000070 f6 00 00 00 b2 01 00 80 54 01 00 80 4f 01 00 80
       3.45e-43 -6.08e-43 -4.76e-43 -4.7e-43
000080 df 2d 00 80 e9 60 a3 bb 5d 01 00 00 fd 01 00 00
       -1.6455e-41 -0.004985918 4.89e-43 7.13e-43
000090 de 77 fc ba ab c1 90 3a 34 00 00 80 37 b0 b4 bb
       -0.0019261797 0.0011044046 -7.3e-44 -0.0055141705
0000a0 4b 01 00 00 b4 63 52 ba b2 d0 21 3b 85 99 9e bb
       4.64e-43 -0.0008025721 0.0024691042 -0.0048400783
0000b0 bc 01 00 80 c5 a5 c6 3a 5a 06 6e bb 81 02 00 00
       -6.22e-43 0.0015155604 -0.0036319704 8.98e-43
0000c0 c5 02 00 00 17 02 00 00 9c 0c 21 00 07 8e f9 3a
       9.94e-43 7.5e-43 3.035095e-39 0.001903952
0000d0 36 00 00 80 5a 00 00 80 f0 00 00 80 79 01 00 80
       -7.6e-44 -1.26e-43 -3.36e-43 -5.28e-43
0000e0 e7 dc 85 ba d1 20 3d 3b 39 00 00 80 e1 00 00 80
       -0.0010212929 0.0028858671 -8e-44 -3.15e-43
0000f0 8b 02 00 00 2f 01 00 00 b5 02 00 00 9a 00 00 00
       9.12e-43 4.25e-43 9.71e-43 2.16e-43
000100 22 ac a0 36 f5 00 00 80 e8 01 00 00 e3 02 00 80
       4.7884105e-06 -3.43e-43 6.84e-43 -1.036e-42
000110 e1 00 00 00 54 01 00 80 ca 00 00 80 11 01 00 80
       3.15e-43 -4.76e-43 -2.83e-43 -3.83e-43
000120 17 00 00 80 6d 01 00 80 d7 01 00 80 ac 81 17 ba
       -3.2e-44 -5.11e-43 -6.6e-43 -0.00057795155
000130 5a 03 00 80 4b b9 0d bb 07 00 00 80 91 00 00 80
       -1.202e-42 -0.0021625336 -1e-44 -2.03e-43
000140 41 03 00 80 e4 01 00 80 15 01 00 00 77 00 00 80
       -1.167e-42 -6.78e-43 3.88e-43 -1.67e-43
000150 37 01 00 00 bc 02 00 80 7e f9 c7 86 5b 00 00 80
       4.36e-43 -9.81e-43 -7.5222076e-35 -1.28e-43
000160 47 02 00 80 fc d6 0f 3b 1a 02 00 00 64 00 00 00
       -8.17e-43 0.002194821 7.54e-43 1.4e-43
000170 44 d5 d5 b9 40 00 00 80 8f 02 00 80 0f 03 00 80
       -0.0004078542 -9e-44 -9.18e-43 -1.097e-42
000180 08 4f 01 3b b0 3a b3 bb a6 01 00 80 8a 01 00 00
       0.0019730944 -0.0054696426 -5.91e-43 5.52e-43
000190 96 02 00 00 43 01 00 80 3b 02 00 80 07 02 00 80
       9.28e-43 -4.53e-43 -8e-43 -7.27e-43
0001a0 83 02 00 00 36 e9 ac 3b ea 9d 71 bb c0 01 00 00
       9.01e-43 0.0052768243 -0.0036867806 6.28e-43
0001b0 56 a4 c9 bb 16 00 00 00 43 42 4d bb 56 02 00 00
       -0.0061536236 3.1e-44 -0.0031320013 8.38e-43
0001c0 bd 00 00 80 05 02 00 80 0a 00 00 00 c7 78 f6 3a
       -2.65e-43 -7.24e-43 1.4e-44 0.0018804305
0001d0 4a 00 00 00 5f 00 00 00 ba 01 00 80 39 00 00 00
       1.04e-43 1.33e-43 -6.2e-43 8e-44
0001e0 9c 01 00 80 c5 00 00 80 aa 01 00 80 d0 ba 98 3b
       -5.77e-43 -2.76e-43 -5.97e-43 0.0046609417
0001f0 c0 fe 28 3b e4 c3 0b bc 9f ba c8 3a 60 05 ce ba
       0.0025786608 -0.008530591 0.0015314406 -0.0015718155
000200 80 ca c8 3a 19 48 0b bb 3d 02 00 80 a0 01 00 80
       0.0015319139 -0.002125269 -8.03e-43 -5.83e-43
000210 5a 01 00 80 d7 00 00 80 25 01 00 80 90 00 00 80
       -4.85e-43 -3.01e-43 -4.1e-43 -2.02e-43
000220 10 02 00 00 83 80 e6 3a 74 01 00 80 fc d5 8e 3a
       7.4e-43 0.0017585907 -5.21e-43 0.0010897513
000230 20 48 31 bb 43 02 00 00 0f 00 00 80 48 ad a6 bb
       -0.0027051046 8.11e-43 -2.1e-44 -0.0050865747
000240 05 a2 72 b9 bc 66 20 bb a6 01 00 80 33 03 00 80
       -0.00023139275 -0.0024475297 -5.91e-43 -1.148e-42
000250 f5 23 1a 00 b7 b0 92 bb 30 02 00 80 4c 01 00 00
       2.400622e-39 -0.0044766325 -7.85e-43 4.65e-43
000260 8b 02 00 00 01 00 00 00 3b 00 00 80 a5 01 00 00
       9.12e-43 1e-45 -8.3e-44 5.9e-43
000270 38 02 00 00 d5 3a c7 3a 69 02 00 80 46 00 00 00
       7.96e-43 0.0015200028 -8.65e-43 9.8e-44
000280 0b 02 00 80 32 01 00 80 f9 82 88 bb 9d 01 00 80
       -7.33e-43 -4.29e-43 -0.004166004 -5.79e-43
000290 99 00 00 80 ba 02 00 80 a9 02 00 80 41 00 00 80
       -2.14e-43 -9.78e-43 -9.54e-43 -9.1e-44
0002a0 d5 02 00 80 3f 02 00 00 89 d5 97 39 90 a1 9a 8e
       -1.016e-42 8.06e-43 0.0002896006 -3.811951e-30
0002b0 b9 01 00 00 62 19 48 3b 60 6c 05 3b a4 00 00 00
       6.18e-43 0.0030532707 0.0020358786 2.3e-43
0002c0 7d 02 00 00 c8 25 bd 39 b1 01 00 00 20 56 31 3b
       8.93e-43 0.00036077038 6.07e-43 0.002705939
0002d0 4c 02 00 00 61 00 00 80 e5 00 00 00 77 00 00 80
       8.24e-43 -1.36e-43 3.21e-43 -1.67e-43
0002e0 59 35 84 3b 66 01 00 00 fc 01 00 00 d3 00 00 00
       0.00403468 5.02e-43 7.12e-43 2.96e-43
0002f0 c4 00 00 00 77 02 00 80 fe 00 00 80 68 01 00 80
       2.75e-43 -8.84e-43 -3.56e-43 -5.04e-43
000300 4b 02 00 00 b1 02 00 00 70 0e 9f 3a 57 01 00 00
       8.23e-43 9.65e-43 0.001213504 4.8e-43
000310 78 61 dc 3a 1a 01 00 80 6c 5e 0b bc a2 02 00 00
       0.0016813716 -3.95e-43 -0.008506399 9.44e-43
000320 4b 01 00 80 f9 00 00 00 95 02 00 80 a1 00 00 00
       -4.64e-43 3.49e-43 -9.26e-43 2.26e-43
000330 fb 00 00 00 80 03 00 00 78 02 00 80 1f 02 00 00
       3.52e-43 1.256e-42 -8.86e-43 7.61e-43
000340 aa 00 00 80 12 01 00 80 6d 01 00 00 fb 00 00 00
       -2.38e-43 -3.84e-43 5.11e-43 3.52e-43
000350 86 01 00 00 14 00 00 00 06 00 00 80 55 01 00 80
       5.47e-43 2.8e-44 -8e-45 -4.78e-43
000360 99 03 00 00 1e 00 00 80 aa 02 00 80 d7 03 00 00
       1.29e-42 -4.2e-44 -9.56e-43 1.377e-42
000370 64 01 00 00 58 03 00 00 26 01 00 00 81 01 00 80
       4.99e-43 1.2e-42 4.12e-43 -5.4e-43
000380 db 01 00 80 f8 01 00 80 aa 01 00 00 46 11 00 00
       -6.66e-43 -7.06e-43 5.97e-43 6.197e-42
000390 b4 00 00 80 57 02 00 00 50 02 00 80 2b 00 00 80
       -2.52e-43 8.4e-43 -8.3e-43 -6e-44
0003a0 d0 00 00 00 b8 00 00 00 96 01 00 00 d7 03 00 00
       2.91e-43 2.58e-43 5.69e-43 1.377e-42
0003b0 d7 00 00 80 fd 00 00 00 18 00 00 00 5a 01 00 00
       -3.01e-43 3.55e-43 3.4e-44 4.85e-43
0003c0 e8 00 00 00 1a 01 00 00 25 03 00 00 43 02 00 00
       3.25e-43 3.95e-43 1.128e-42 8.11e-43
0003d0 38 01 00 00 82 03 00 80 06 00 00 80 4b 00 00 80
       4.37e-43 -1.258e-42 -8e-45 -1.05e-43
0003e0 89 03 00 00 bf 00 00 00 28 02 00 00 f1 00 00 00
       1.268e-42 2.68e-43 7.74e-43 3.38e-43
0003f0 70 00 00 00 4f 02 00 00 2b 00 00 00 12 00 00 80
       1.57e-43 8.28e-43 6e-44 -2.5e-44

fc2.bias f4 [100]
000000 73 76 d3 34 a9 02 00 00 7c 00 00 00 a1 c1 80 33
       3.9387996e-07 9.54e-43 1.74e-43 5.9956854e-08
000010 81 8a 30 33 49 03 00 80 73 03 00 00 d0 02 00 80
       4.1104162e-08 -1.178e-42 1.237e-42 -1.009e-42
000020 8b fc 44 36 1d 03 00 00 b0 00 00 80 2b 04 00 80
       2.9353275e-06 1.117e-42 -2.47e-43 -1.495e-42
000030 27 04 00 00 d0 03 00 80 17 03 00 80 35 04 00 80
       1.49e-42 -1.368e-42 -1.108e-42 -1.509e-42
000040 6c ba 32 b3 24 e9 a2 b4 45 04 00 00 b7 03 00 80
       -4.1613404e-08 -3.0344484e-07 1.532e-42 -1.333e-42
000050 06 7c 88 b4 01 75 51 36 f0 03 00 00 65 2e ad b4
       -2.5422213e-07 3.1211532e-06 1.413e-42 -3.2257518e-07
000060 d6 01 00 00 7d 03 00 00 f1 02 00 00 34 2f 8a 36
       6.59e-43 1.251e-42 1.055e-42 4.1182157e-06
000070 f7 b4 ad b5 aa 71 84 b4 33 f7 43 b5 e0 03 00 00
       -1.2942172e-06 -2.4669617e-07 -7.3002883e-07 1.39e-42
000080 00 02 00 00 62 03 00 80 01 01 00 00 4a 03 00 00
       7.17e-43 -1.214e-42 3.6e-43 1.18e-42
000090 12 83 13 b6 f1 03 00 00 fb 01 00 00 b8 03 00 80
       -2.1981e-06 1.414e-42 7.1e-43 -1.334e-42
0000a0 ad 03 00 80 f1 01 00 80 b7 18 df 35 11 03 00 80
       -1.319e-42 -6.96e-43 1.6621988e-06 -1.1e-42
0000b0 d4 02 00 00 15 03 00 00 55 03 00 80 1f 04 00 80
       1.015e-42 1.106e-42 -1.195e-42 -1.478e-42
0000c0 3b 44 c2 b5 37 bc 49 34 f6 03 00 80 9a 42 70 34
       -1.4473984e-06 1.8788056e-07 -1.421e-42 2.2375971e-07
0000d0 30 03 00 00 13 01 00 80 da 01 00 00 af 03 00 80
       1.143e-42 -3.85e-43 6.64e-43 -1.321e-42
0000e0 af 01 00 00 0b 02 00 00 d1 00 00 80 35 01 00 80
       6.04e-43 7.33e-43 -2.93e-43 -4.33e-43
0000f0 f9 c7 b3 b5 a2 03 00 00 d0 71 18 b6 7e 03 00 80
       -1.3394739e-06 1.303e-42 -2.2716013e-06 -1.253e-42
000100 81 65 31 b3 84 82 92 35 09 03 00 80 c8 01 00 00
       -4.130334e-08 1.0915833e-06 -1.089e-42 6.39e-43
000110 61 51 3b 35 2a 00 00 80 4c 03 00 80 fa 00 00 80
       6.978135e-07 -5.9e-44 -1.183e-42 -3.5e-43
000120 3a 80 52 34 64 03 00 80 7a 03 00 00 ee 03 00 00
       1.9604423e-07 -1.216e-42 1.247e-42 1.41e-42
000130 fc cb 5b b6 4c 02 00 00 0c 04 00 00 40 02 00 00
       -3.2752278e-06 8.24e-43 1.452e-42 8.07e-43
000140 38 03 00 80 aa 00 00 80 85 ca 06 b6 75 03 00 00
       -1.155e-42 -2.38e-43 -2.0085438e-06 1.24e-42
000150 f3 03 00 80 ef 03 00 80 f5 01 00 00 e7 92 b3 b5
       -1.417e-42 -1.411e-42 7.02e-43 -1.3379293e-06
000160 af 1b 7e b5 a2 02 00 80 30 00 00 00 94 02 00 80
       -9.466266e-07 -9.44e-43 6.7e-44 -9.25e-43
000170 cf 03 00 00 83 fb 17 b5 03 d5 d1 33 ff 02 00 00
       1.366e-42 -5.661788e-07 9.7710675e-08 1.075e-42
000180 88 79 32 b6 45 64 3e b5 4f 03 00 80 57 22 c6 b4
       -2.6594807e-06 -7.0926427e-07 -1.187e-42 -3.690536e-07

bn2.weight f4 [100]
000000 da 25 53 bc 1d b7 20 35 e7 00 00 80 6c 2f 4b bc
       -0.0128874425 5.987111e-07 -3.24e-43 -0.012401443
000010 e1 e5 da bd 8c 00 00 80 40 00 00 00 ab 01 00 80
       -0.10688377 -1.96e-43 9e-44 -5.98e-43
000020 1b d4 e9 3d f7 01 00 00 5c 00 00 00 d0 01 00 00
       0.11417409 7.05e-43 1.29e-43 6.5e-43
000030 47 02 00 00 d3 00 00 80 6b 01 00 00 c0 00 00 80
       8.17e-43 -2.96e-43 5.09e-43 -2.69e-43
000040 7a 9d ee 3d 3d b5 c6 bd 3f 00 00 80 2e 01 00 80
       0.1165113 -0.09702537 -8.8e-44 -4.23e-43
000050 e1 5e 94 3c 20 cb 42 3e fa 00 00 80 32 7b df 3d
       0.018111648 0.19022799 -3.5e-43 0.109121695
000060 5d 02 00 80 8b 01 00 00 77 01 00 80 57 a1 2d 3e
       -8.48e-43 5.54e-43 -5.25e-43 0.16956078
000070 0a 07 f9 3d fa c2 f6 3c af 89 e0 bc d1 00 00 00
       0.12159546 0.030122269 -0.027409403 2.93e-43
000080 71 01 00 80 d9 00 00 80 a9 00 00 80 d7 00 00 80
       -5.17e-43 -3.04e-43 -2.37e-43 -3.01e-43
000090 aa 9c 73 bd f2 00 00 00 f5 8c d3 b1 34 fc 27 39
       -0.05947558 3.39e-43 -6.156933e-09 0.00016020314
0000a0 b2 00 00 80 a7 01 00 80 f1 80 2d 3e 87 01 00 80
       -2.5e-43 -5.93e-43 0.16943718 -5.48e-43
0000b0 6b 00 00 00 d7 00 00 00 3f 00 00 00 41 01 00 80
       1.5e-43 3.01e-43 8.8e-44 -4.5e-43
0000c0 35 3d e8 3d 8b 4c 14 3d 98 01 00 00 b5 12 fd 3d
       0.11339799 0.03620581 5.72e-43 0.12357084
0000d0 c7 01 00 00 62 01 00 00 7c 00 00 00 31 01 00 00
       6.38e-43 4.96e-43 1.74e-43 4.27e-43
0000e0 64 ef 03 10 73 01 00 00 15 aa 39 28 09 01 00 80
       2.6019614e-29 5.2e-43 1.0306444e-14 -3.71e-43
0000f0 f1 35 e8 3d 58 00 00 80 87 56 0a 3e 9c 00 00 80
       0.113384135 -1.23e-43 0.1350957 -2.19e-43
000100 68 bd e8 3d 4d 93 f5 3d 6f 00 00 80 15 06 00 00
       0.113642514 0.11990986 -1.56e-43 2.182e-42
000110 b5 4f c4 bd ad 01 00 00 61 01 00 00 52 01 00 80
       -0.095855154 6.01e-43 4.95e-43 -4.74e-43
000120 41 72 3b bc 14 01 00 00 53 00 00 00 dc 00 00 80
       -0.0114408145 3.87e-43 1.16e-43 -3.08e-43
000130 02 e5 e5 3d 05 00 00 80 01 01 00 80 c2 01 00 80
       0.112253204 -7e-45 -3.6e-43 -6.3e-43
000140 4f 00 00 80 46 01 00 80 32 04 f4 3d aa 00 00 00
       -1.11e-43 -4.57e-43 0.11914863 2.38e-43
000150 d7 56 68 00 f7 00 00 80 1f 02 00 00 b5 17 e8 3d
       9.582044e-39 -3.46e-43 7.61e-43 0.11332647
000160 e3 b4 b0 3c 80 01 00 00 02 00 00 80 a6 01 00 00
       0.021570629 5.38e-43 -3e-45 5.91e-43
000170 a8 01 00 00 c2 5c 0c 3d 8c f8 ea 3d 73 01 00 80
       5.94e-43 0.03426815 0.11473188 -5.2e-43
000180 20 55 f6 3d 73 79 f7 3c 66 00 00 00 16 e6 df 3d
       0.12027955 0.030209279 1.43e-43 0.10932557

bn2.bias f4 [100]
000000 12 59 97 3b 4b 96 fd b8 1a b4 4d a5 96 56 cf 3b
       0.0046187723 -0.00012091974 -1.7841936e-16 0.0063274605
000010 c6 52 a2 3d 29 00 00 80 39 9c 97 a7 c7 ed 11 ba
       0.07925944 -5.7e-44 -4.2080296e-15 -0.00055667426
000020 1f f2 a6 3d 32 ae fa 8f d5 71 d3 b1 58 c4 54 93
       0.0815165 -2.4719001e-29 -6.1538494e-09 -2.6854967e-27
000030 31 a0 8a b6 75 07 00 80 7b fc ce 98 21 b3 49 92
       -4.131369e-06 -2.675e-42 -5.3504692e-24 -6.364521e-28
000040 dc 13 ae 3d ce 05 35 3d bd 05 c9 a0 16 b2 59 86
       0.084998816 0.04419499 -3.4054522e-19 -4.0944e-35
000050 9a bf 0c 3c b2 27 1b be f4 8d 18 97 57 02 62 3d
       0.008590603 -0.15151861 -4.929302e-25 0.055178013
000060 eb 0a 62 98 0f 92 02 83 37 ea 48 9d da 01 07 be
       -2.9215328e-24 -3.8371233e-37 -2.6590866e-21 -0.131843
000070 0f 5a 8d 3d 2c 74 6a 3c 61 9f 57 39 a5 00 00 80
       0.06901943 0.014309924 0.00020563371 -2.31e-43
000080 d0 43 c5 b8 f7 d7 c3 a4 80 a9 da a6 08 1a 03 ba
       -9.406323e-05 -8.493363e-17 -1.5172732e-15 -0.00050011324
000090 14 d7 b2 3c 69 04 01 80 59 5c 0c ba 3f 88 69 b9
       0.021831073 -9.3418e-41 -0.0005354337 -0.00022271367
0000a0 27 2e aa a3 7f eb 14 80 53 f6 07 be 14 bb 00 ba
       -1.8450983e-17 -1.92119e-39 -0.13277559 -0.00049106893
0000b0 8d f5 27 a3 f3 00 00 80 8d 54 10 b5 f2 2f b5 b7
       -9.1050855e-18 -3.4e-43 -5.376722e-07 -2.1599208e-05
0000c0 ff 11 a5 3d 87 7e 39 3c 40 00 00 80 e4 b7 a8 3d
       0.08060073 0.01132167 -9e-44 0.08238199
0000d0 61 d2 84 aa e6 8b 7d 8d 44 a0 bc 9e bb 59 aa 81
       -2.359389e-13 -7.813004e-31 -1.9971559e-20 -6.2576894e-38
0000e0 e1 8d 92 b7 5b 85 d7 b5 e6 a3 06 b1 fe 45 e2 86
       -1.7470624e-05 -1.605756e-06 -1.9592732e-09 -8.5114596e-35
0000f0 6f da b2 3d 69 b2 c6 9b 79 0d a1 3d 16 c7 95 87
       0.08733069 -3.2871647e-22 0.07863898 -2.253604e-34
000100 10 11 85 3d 4b 43 a2 3d 50 2b 01 80 46 f6 01 a1
       0.06497395 0.07922991 -1.07373e-40 -4.403284e-19
000110 ff 01 37 3d b9 1c 18 b5 0a d3 5a 9e 1e 2e a9 b9
       0.044679638 -5.666621e-07 -1.1584466e-20 -0.00032268552
000120 f7 a6 01 3c f0 00 00 80 7b ae 88 b3 81 61 c1 b9
       0.007913343 -3.36e-43 -6.364731e-08 -0.00036884475
000130 cf e1 88 3d 6e 2d 09 b1 1d e3 38 b6 dd 2c 00 80
       0.066836946 -1.9961948e-09 -2.7550334e-06 -1.6094e-41
000140 1d ba 9e 82 0d 8c 18 85 f0 30 b6 3d 52 00 00 80
       -2.3322837e-37 -7.172729e-36 0.08896053 -1.15e-43
000150 1f f2 1d 82 e9 02 00 80 1e b6 0b b5 91 04 92 3d
       -1.1604024e-37 -1.044e-42 -5.204655e-07 0.07129777
000160 43 14 4e 3c 9c e4 11 b6 94 dc 91 b1 b3 01 00 80
       0.012578073 -2.1739752e-06 -4.2451322e-09 -6.1e-43
000170 ff 27 a6 a9 06 68 9d 3c 59 da 60 3d a7 53 11 b4
       -7.378819e-14 0.019214641 0.054895733 -1.353461e-07
000180 a0 9d 99 3d ef e8 ff 3b 88 51 f4 b9 09 64 9c 3d
       0.07500768 0.0078097503 -0.00046600052 0.07636268
