model_cnn2.pth (torch, 35872 bytes, 19 tensors)

fc1.weight f4 [100, 2]
-4.75e-43 -3.4e-43 4.67e-43 3.39e-43 -4.55e-43 -1.29e-43 8.3e-44 5.7e-44
-4e-43 -4.26e-43 3.15e-43 -3.9e-43 3.85e-43 1.99e-43 3.15e-43 6.36e-43
-5.77e-43 -4.27e-43 5.86e-43 1e-43 1.96e-43 4.9e-43 5.79e-43 1.29e-43
5.11e-43 -3.63e-43 3.98e-43 -4.72e-43 5.68e-43 -5.7e-43 -3.9e-44 -5.4e-43
-3.92e-43 -6.25e-43 5.44e-43 3.56e-43 -1.43e-43 -4.41e-43 -3.18e-43 2.82e-43
3.25e-43 -1.12e-43 -2.3e-43 2.0038234e-25 2.69e-43 -6.1e-43 -2.34e-43 -1e-44
-4.9e-43 -2.09e-43 1.39e-43 5.21e-43 -3.88e-43 -2.66e-43 -6.12e-43 -3e-43
-5.06e-43 -1.47e-43 -5.2e-43 5.04e-43 -3.18e-43 6e-45 -3.64e-43 8e-45
5.4e-43 -1e-44 -3.25e-43 -4.67e-43 4.01e-43 -3.77e-43 1.3e-43 -4.43e-43
-2.58e-43 -1.3e-44 4.65e-43 2.3e-43 -3.11e-43 -1.22e-43 -3.7e-43 4.5e-44
-1e-44 1.01e-43 0.0040220767 -0.0047337892 -2e-43 -4.46e-43 4.67e-43 -2.83e-43
-4.26e-43 -4.6e-43 -5.79e-43 3.69e-43 3.91e-43 1.63e-43 3.45e-43 -4.33e-43
-4.51e-43 -3.97e-43 -3.39e-43 5.3e-43 -2.93e-43 -1.18e-43 -5.65e-43 4.29e-43
-6.3e-43 4.76e-43 3.43e-43 -2.21e-43 -2.31e-43 3.8e-44 -1.49e-43 2.83e-43
5.82e-43 -1.4e-43 4.9e-43 -1.64e-43 -6.03e-43 2.24e-43 3.03e-43 4.13e-43
1.05e-43 -4.15e-43 -4.41e-43 -1.65e-43 5.87e-43 -1.5e-44 2.82e-43 3.12e-43
1e-44 3.88e-43 -2.06e-43 -1.88e-43 2.94e-43 -8.7e-44 6e-45 1.23e-43
3.07e-43 2.34e-43 4.06e-43 2.26e-43 5.11e-43 3.4e-43 -6.1e-43 -1.49e-43
-3.38e-43 -2.8e-43 -3.67e-43 5.04e-43 -4.71e-43 -1.19e-43 -4.72e-43 -1.47e-43
-2.76e-43 1.88e-43 4.2e-43 -4.53e-43 4.37e-43 -3.42e-43 -4.22e-43 -5.5e-43
5.9e-44 -2.31e-43 3.3e-43 -2.28e-43 3.78e-43 -2.45e-43 -5.21e-43 7.7e-44
-4.95e-43 -1.46e-43 -2.65e-43 -6.3e-44 2.47e-43 -3.4e-44 0.25076234 -0.11311229
3.31e-43 -4.16e-43 -3.2e-44 -1.86e-43 2.77e-43 5.25e-43 3.27e-43 3.34e-43
3.62e-43 1.5e-43 -5.58e-43 -1.23e-43 -2.7e-44 -2.42e-43 1.95e-43 9.5e-44
-4.43e-43 5.07e-43 1.1410684e-27 -2.7707507e-26 3.71e-43 -3.59e-43 -1.81e-43 5.54e-43
00000000: 5301 0080 f300 0080 4d01 0000 f200 0000
00000010: 4501 0080 5c00 0080 3b00 0000 2900 0000
00000020: 1d01 0080 3001 0080 e100 0000 1601 0080
00000030: 1301 0000 8e00 0000 e100 0000 c601 0000
00000040: 9c01 0080 3101 0080 a201 0000 4700 0000
00000050: 8c00 0000 5e01 0000 9d01 0000 5c00 0000
00000060: 6d01 0000 0301 0080 1c01 0000 5101 0080
00000070: 9501 0000 9701 0080 1c00 0080 8101 0080
00000080: 1801 0080 be01 0080 8401 0000 fe00 0000
00000090: 6600 0080 3b01 0080 e300 0080 c900 0000
000000a0: e800 0000 5000 0080 a400 0080 b30f 7816
000000b0: c000 0000 b301 0080 a700 0080 0700 0080
000000c0: 5e01 0080 9500 0080 6300 0000 7401 0000
000000d0: 1501 0080 be00 0080 b501 0080 d600 0080
000000e0: 6901 0080 6900 0080 7301 0080 6801 0000
000000f0: e300 0080 0400 0000 0401 0080 0600 0000
00000100: 8101 0000 0700 0080 e800 0080 4d01 0080
00000110: 1e01 0000 0d01 0080 5d00 0000 3c01 0080
00000120: b800 0080 0900 0080 4c01 0000 a400 0000
00000130: de00 0080 5700 0080 0801 0080 2000 0000
00000140: 0700 0080 4800 0000 a0cb 833b e71d 9bbb
00000150: 8f00 0080 3e01 0080 4d01 0000 ca00 0080
00000160: 3001 0080 4801 0080 9d01 0080 0701 0000
00000170: 1701 0000 7400 0000 f600 0000 3501 0080
00000180: 4201 0080 1b01 0080 f200 0080 7a01 0000
00000190: d100 0080 5400 0080 9301 0080 3201 0000
000001a0: c201 0080 5401 0000 f500 0000 9e00 0080
000001b0: a500 0080 1b00 0000 6a00 0080 ca00 0000
000001c0: 9f01 0000 6400 0080 5e01 0000 7500 0080
000001d0: ae01 0080 a000 0000 d800 0000 2701 0000
000001e0: 4b00 0000 2801 0080 3b01 0080 7600 0080
000001f0: a301 0000 0b00 0080 c900 0000 df00 0000
00000200: 0700 0000 1501 0000 9300 0080 8600 0080
00000210: d200 0000 3e00 0080 0400 0000 5800 0000
00000220: db00 0000 a700 0000 2201 0000 a100 0000
00000230: 6d01 0000 f300 0000 b301 0080 6a00 0080
00000240: f100 0080 c800 0080 0601 0080 6801 0000
00000250: 5001 0080 5500 0080 5101 0080 6900 0080
00000260: c500 0080 8600 0000 2c01 0000 4301 0080
00000270: 3801 0000 f400 0080 2d01 0080 8801 0080
00000280: 2a00 0000 a500 0080 eb00 0000 a300 0080
00000290: 0e01 0000 af00 0080 7401 0080 3700 0000
000002a0: 6101 0080 6800 0080 bd00 0080 2d00 0080
000002b0: b000 0000 1800 0080 ec63 803e 6ba7 e7bd
000002c0: ec00 0000 2901 0080 1700 0080 8500 0080
000002d0: c600 0000 7701 0000 e900 0000 ee00 0000
000002e0: 0201 0000 6b00 0000 8e01 0080 5800 0080
000002f0: 1300 0080 ad00 0080 8b00 0000 4400 0000
00000300: 3c01 0080 6a01 0000 3ccf b412 7033 0995
00000310: 0901 0000 0001 0080 8100 0080 8b01 0000

fc1.bias f4 [100]
-6.6e-44 -3.55e-43 6.03e-43 2.66e-43 6.29e-43 4e-45 -3.43e-43 1.63e-43
-4.33e-43 6.14e-43 -5.75e-43 4.9e-44 -6e-44 5.38e-43 -4.18e-43 -5.48e-43
4.79e-43 -1.92e-43 -4.83e-43 -4.92e-43 3.2e-43 1.3e-43 5.75e-43 -5.93e-43
-1.15e-43 -6.38e-43 -4.88e-43 -5.37e-43 6.2e-43 -2.51e-43 -6.38e-43 3.01e-43
2.13e-43 -7e-44 1.46e-43 1.99e-43 -1.18e-43 1.75e-43 -2.38e-43 -6.01e-43
-3.94e-43 -1.6889718e-18 -2.6e-43 -7e-44 -4.51e-43 -5.09e-43 -5.6e-43 4.75e-43
1.32e-43 -5.2e-44 4.8e-44 6.28e-43 -3.53e-43 -6.4e-44 -2.16e-43 3.94e-43
1.29e-43 1.65e-43 3.83e-43 -4.16e-43 2.8e-44 4.18e-43 -2.13e-43 -7.3e-44
-5.96e-43 -2.14e-43 2.75e-43 5.45e-43 4.54e-43 2.5e-44 4.08e-43 6.03e-43
-8.5e-44 -2e-44 5.82e-43 2.26e-43 4.3e-43 -2.77e-43 -4.08e-43 -2.19e-43
2.62e-43 -4e-43 -8.3e-44 -6.1e-43 4.53e-43 -4.5e-44 1.95e-43 -1.3529128e-08
-3.12e-43 3.57e-43 1e-45 1.6e-43 2.51e-43 -5.89e-43 2.38e-43 1.44e-43
3.11e-43 2.41e-43 -3.8e-43 -1.18e-43
00000000: 2f00 0080 fd00 0080 ae01 0000 be00 0000
00000010: c101 0000 0300 0000 f500 0080 7400 0000
00000020: 3501 0080 b601 0000 9a01 0080 2300 0000
00000030: 2b00 0080 8001 0000 2a01 0080 8701 0080
00000040: 5601 0000 8900 0080 5901 0080 5f01 0080
00000050: e400 0000 5d00 0000 9a01 0000 a701 0080
00000060: 5200 0080 c701 0080 5c01 0080 7f01 0080
00000070: ba01 0000 b300 0080 c701 0080 d700 0000
00000080: 9800 0000 3200 0080 6800 0000 8e00 0000
00000090: 5400 0080 7d00 0000 aa00 0080 ad01 0080
000000a0: 1901 0080 8d3f f9a1 ba00 0080 3200 0080
000000b0: 4201 0080 6b01 0080 9001 0080 5301 0000
000000c0: 5e00 0000 2500 0080 2200 0000 c001 0000
000000d0: fc00 0080 2e00 0080 9a00 0080 1901 0000
000000e0: 5c00 0000 7600 0000 1101 0000 2901 0080
000000f0: 1400 0000 2a01 0000 9800 0080 3400 0080
00000100: a901 0080 9900 0080 c400 0000 8501 0000
00000110: 4401 0000 1200 0000 2301 0000 ae01 0000
00000120: 3d00 0080 0e00 0080 9f01 0000 a100 0000
00000130: 3301 0000 c600 0080 2301 0080 9c00 0080
00000140: bb00 0000 1d01 0080 3b00 0080 b301 0080
00000150: 4301 0000 2000 0080 8b00 0000 bc6d 68b2
00000160: df00 0080 ff00 0000 0100 0000 7200 0000
00000170: b300 0000 a401 0080 aa00 0000 6700 0000
00000180: de00 0000 ac00 0000 0f01 0080 5400 0080

bn1.weight f4 [100]
3.35e-43 -5.23e-43 -4.5e-43 4.93e-43 6.609053e-28 1.3e-44 5.54e-43 1.96e-43
1.35e-43 6.17e-43 1.57e-43 4.15e-43 -5.24e-43 6e-45 4.3e-44 -4.9e-44
-6.7e-44 -1.8e-44 -4.95e-43 -1.33e-43 -5.32e-43 2.46105e-15 2.19e-43 6.32e-43
-1.99e-43 -4.76e-43 1.99e-43 -4.25e-43 5.16e-43 -1.47e-43 -1.18e-43 3.97e-43
1.4e-43 4.8e-43 1.53e-43 3e-45 3.15e-43 3.49e-43 -6.9e-44 3.62e-43
2.59e-43 -6.171796e-08 -4.67e-43 4.08e-43 1.72e-43 -2.54e-43 3.11e-43 5.77e-43
-8.1e-44 2.63e-43 3.49e-43 -4.26e-43 2.3e-43 -5.9e-44 5.86e-43 7.3e-44
4.57e-43 4.85e-43 -3.31e-43 -1.01e-43 -9.2e-44 6.32e-43 -5.1e-43 -4.13e-43
-6.03e-43 -3.03e-43 -4.57e-43 2.82e-43 -6.6e-44 6.15e-43 -2.1137993e-21 3.45e-43
3.85e-43 3.53e-43 -3.43e-43 6.26e-43 -2.7e-43 -4.83e-43 -2.16e-43 -1.02e-43
-2.47e-43 -2.56e-43 1.65e-43 -5e-43 6.4e-44 -4.54e-43 3.3e-43 0.04922472
6.08e-43 4.1e-43 -3.34e-43 -3.73e-43 -3.31e-43 -6.22e-43 -1.36e-43 2.31e-43
2.89e-43 5.102575e-12 -2.5e-43 1.98e-43
00000000: ef00 0000 7501 0080 4101 0080 6001 0000
00000010: 0273 5112 0900 0000 8b01 0000 8c00 0000
00000020: 6000 0000 b801 0000 7000 0000 2801 0000
00000030: 7601 0080 0400 0000 1f00 0000 2300 0080
00000040: 3000 0080 0d00 0080 6101 0080 5f00 0080
00000050: 7c01 0080 5c56 3127 9c00 0000 c301 0000
00000060: 8e00 0080 5401 0080 8e00 0000 2f01 0080
00000070: 7001 0000 6900 0080 5400 0080 1b01 0000
00000080: 6400 0000 5701 0000 6d00 0000 0200 0000
00000090: e100 0000 f900 0000 3100 0080 0201 0000
000000a0: b900 0000 cf89 84b3 4d01 0080 2301 0000
000000b0: 7b00 0000 b500 0080 de00 0000 9c01 0000
000000c0: 3a00 0080 bc00 0000 f900 0000 3001 0080
000000d0: a400 0000 2a00 0080 a201 0000 3400 0000
000000e0: 4601 0000 5a01 0000 ec00 0080 4800 0080
000000f0: 4200 0080 c301 0000 6c01 0080 2701 0080
00000100: ae01 0080 d800 0080 4601 0080 c900 0000
00000110: 2f00 0080 b701 0000 d3b6 1f9d f600 0000
00000120: 1301 0000 fc00 0000 f500 0080 bf01 0000
00000130: c100 0080 5901 0080 9a00 0080 4900 0080
00000140: b000 0080 b700 0080 7600 0000 6501 0080
00000150: 2e00 0000 4401 0080 eb00 0000 dc9f 493d
00000160: b201 0000 2501 0000 ee00 0080 0a01 0080
00000170: ec00 0080 bc01 0080 6100 0080 a500 0000
00000180: ce00 0000 e987 b32c b200 0080 8d00 0000

bn1.bias f4 [100]
3.21e-43 6.32e-43 -3.56e-43 5.66e-43 -5.41005e-39 -3.76e-43 4.08e-43 1.46e-43
1.65e-43 -4.44e-43 1.05e-43 -5.89e-43 3.3e-43 5.73e-43 -1.43e-43 3.07e-43
7.8e-44 2.09e-43 1.93e-43 -3.6e-44 -2.41e-43 -4.302761e-30 6.22e-43 -7e-45
1.29e-43 1.39e-43 -4.65e-43 5.13e-43 -4.53e-43 6.9e-44 -3e-43 -3.74e-43
-4.04e-43 3.27e-43 5.4e-43 -2.33e-43 -5.77e-43 5.77e-43 1.08e-43 -4.4e-43
-3.39e-43 0.00018632808 -2.37e-43 -1.16e-43 6.07e-43 2.75e-43 1.8e-43 5.51e-43
1.4e-44 3.04e-43 -1.67e-43 1.8e-44 -5.94e-43 -2.44e-43 3.07e-43 -2.89e-43
-5.68e-43 5.3e-43 -1.54e-43 -4.4e-43 -4.37e-43 4.74e-43 -4.51e-43 2.65e-43
-5.44e-43 3.18e-43 1.05e-43 6.25e-43 5.32e-43 5.59e-43 -6.24e-43 3.74e-43
-4.83e-43 -3.04e-43 5.54e-43 3.01e-43 -1.11e-43 1.28e-43 1.19e-43 6.22e-43
-1.96e-43 -5.31e-43 -6.29e-43 4.76e-43 1.96e-43 -5.31e-43 -2.87e-43 0.12726553
-1.25e-43 5.4e-43 -1.67e-43 4.55e-43 -5.2e-43 2.9e-43 -6.07e-43 -2.58e-43
5.6e-43 -9.75449e-13 -2.13e-43 -2.17e-43
00000000: e500 0000 c301 0000 fe00 0080 9401 0000
00000010: 05e9 3a80 0c01 0080 2301 0000 6800 0000
00000020: 7600 0000 3d01 0080 4b00 0000 a401 0080
00000030: eb00 0000 9901 0000 6600 0080 db00 0000
00000040: 3800 0000 9500 0000 8a00 0000 1a00 0080
00000050: ac00 0080 6d8a ae8e bc01 0000 0500 0080
00000060: 5c00 0000 6300 0000 4c01 0080 6e01 0000
00000070: 4301 0080 3100 0000 d600 0080 0b01 0080
00000080: 2001 0080 e900 0000 8101 0000 a600 0080
00000090: 9c01 0080 9c01 0000 4d00 0000 3a01 0080
000000a0: f200 0080 1061 4339 a900 0080 5300 0080
000000b0: b101 0000 c400 0000 8000 0000 8901 0000
000000c0: 0a00 0000 d900 0000 7700 0080 0d00 0000
000000d0: a801 0080 ae00 0080 db00 0000 ce00 0080
000000e0: 9501 0080 7a01 0000 6e00 0080 3a01 0080
000000f0: 3801 0080 5201 0000 4201 0080 bd00 0000
00000100: 8401 0080 e300 0000 4b00 0000 be01 0000
00000110: 7c01 0000 8f01 0000 bd01 0080 0b01 0000
00000120: 5901 0080 d900 0080 8b01 0000 d700 0000
00000130: 4f00 0080 5b00 0000 5500 0000 bc01 0000
00000140: 8c00 0080 7b01 0080 c101 0080 5401 0000
00000150: 8c00 0000 7b01 0080 cd00 0080 e551 023e
00000160: 5900 0080 8101 0000 7700 0080 4501 0000
00000170: 7301 0080 cf00 0000 b101 0080 b800 0080
00000180: 9001 0000 4148 89ab 9800 0080 9b00 0080

bn1.running_mean f4 [100]
-3.9e-44 -4.1e-43 6.17e-43 2.52e-43 6.2e-43 4.6e-44 -3.85e-43 1.49e-43
-4.19e-43 6.22e-43 -5.47e-43 3.5e-44 -7.4e-44 5.65e-43 -4.72e-43 -5.06e-43
4.93e-43 -1.65e-43 -4.97e-43 -4.65e-43 3.05e-43 3.3729212e-23 5.98e-43 -6.18e-43
-1.7e-43 -6.05e-43 -4.46e-43 -5.1e-43 6.22e-43 -2.37e-43 -5.97e-43 2.87e-43
2.27e-43 -8.4e-44 2e-43 1.71e-43 -1.44e-43 2.03e-43 -2.8e-43 -5.59e-43
-3.67e-43 -0.50272083 -2.33e-43 -1.25e-43 -4.23e-43 -5.37e-43 -5.32e-43 5.28e-43
1.18e-43 3e-45 3.4e-44 5.72e-43 -3.39e-43 -2.2e-44 -2.02e-43 4.08e-43
7.3e-44 1.92e-43 3.69e-43 -4.3e-43 -2.7e-44 4.26e-43 -1.99e-43 -1e-43
-5.82e-43 -2e-43 2.6e-43 5.18e-43 3.98e-43 1.1e-44 3.81e-43 6.2e-43
-1.14e-43 7e-45 5.68e-43 2.68e-43 4.58e-43 -2.73e-43 -3.53e-43 -1.63e-43
3.18e-43 -4.27e-43 -6.9e-44 -5.68e-43 3.98e-43 -4e-45 2.23e-43 -0.70868325
-3.27e-43 3.85e-43 4.3e-44 1.74e-43 2.65e-43 -5.47e-43 2.1e-43 1.72e-43
2.55e-43 -4.5805678e-24 -3.53e-43 -1.6e-43
00000000: 1c00 0080 2501 0080 b801 0000 b400 0000
00000010: ba01 0000 2100 0000 1301 0080 6a00 0000
00000020: 2b01 0080 bc01 0000 8601 0080 1900 0000
00000030: 3500 0080 9301 0000 5101 0080 6901 0080
00000040: 6001 0000 7600 0080 6301 0080 4c01 0080
00000050: da00 0000 be1a 231a ab01 0000 b901 0080
00000060: 7900 0080 b001 0080 3e01 0080 6c01 0080
00000070: bc01 0000 a900 0080 aa01 0080 cd00 0000
00000080: a200 0000 3c00 0080 8f00 0000 7a00 0000
00000090: 6700 0080 9100 0000 c800 0080 8f01 0080
000000a0: 0601 0080 50b2 00bf a600 0080 5900 0080
000000b0: 2e01 0080 7f01 0080 7c01 0080 7901 0000
000000c0: 5400 0000 0200 0000 1800 0000 9801 0000
000000d0: f200 0080 1000 0080 9000 0080 2301 0000
000000e0: 3400 0000 8900 0000 0701 0000 3301 0080
000000f0: 1300 0080 3001 0000 8e00 0080 4700 0080
00000100: 9f01 0080 8f00 0080 ba00 0000 7201 0000
00000110: 1c01 0000 0800 0000 1001 0000 ba01 0000
00000120: 5100 0080 0500 0000 9501 0000 bf00 0000
00000130: 4701 0000 c300 0080 fc00 0080 7400 0080
00000140: e300 0000 3101 0080 3100 0080 9501 0080
00000150: 1c01 0000 0300 0080 9f00 0000 446c 35bf
00000160: e900 0080 1301 0000 1f00 0000 7c00 0000
00000170: bd00 0000 8601 0080 9600 0000 7b00 0000
00000180: b600 0000 bf33 b198 fc00 0080 7200 0080

bn1.running_var f4 [100]
6e-45 6e-45 6e-45 6e-45 6e-45 6e-45 6e-45 6e-45
6e-45 6e-45 6e-45 6e-45 6e-45 6e-45 6e-45 6e-45
6e-45 6e-45 6e-45 6e-45 6e-45 6e-45 6e-45 6e-45
6e-45 6e-45 6e-45 6e-45 6e-45 6e-45 6e-45 6e-45
6e-45 6e-45 6e-45 6e-45 6e-45 6e-45 6e-45 6e-45
6e-45 0.0005873141 6e-45 6e-45 6e-45 6e-45 6e-45 6e-45
6e-45 6e-45 6e-45 6e-45 6e-45 6e-45 6e-45 6e-45
6e-45 6e-45 6e-45 6e-45 6e-45 6e-45 6e-45 6e-45
6e-45 6e-45 6e-45 6e-45 6e-45 6e-45 6e-45 6e-45
6e-45 6e-45 6e-45 6e-45 6e-45 6e-45 6e-45 6e-45
6e-45 6e-45 6e-45 6e-45 6e-45 6e-45 6e-45 6.8938093
6e-45 6e-45 6e-45 6e-45 6e-45 6e-45 6e-45 6e-45
6e-45 6e-45 6e-45 6e-45
00000000: 0400 0000 0400 0000 0400 0000 0400 0000
00000010: 0400 0000 0400 0000 0400 0000 0400 0000
00000020: 0400 0000 0400 0000 0400 0000 0400 0000
00000030: 0400 0000 0400 0000 0400 0000 0400 0000
00000040: 0400 0000 0400 0000 0400 0000 0400 0000
00000050: 0400 0000 0400 0000 0400 0000 0400 0000
00000060: 0400 0000 0400 0000 0400 0000 0400 0000
00000070: 0400 0000 0400 0000 0400 0000 0400 0000
00000080: 0400 0000 0400 0000 0400 0000 0400 0000
00000090: 0400 0000 0400 0000 0400 0000 0400 0000
000000a0: 0400 0000 fbf5 193a 0400 0000 0400 0000
000000b0: 0400 0000 0400 0000 0400 0000 0400 0000
000000c0: 0400 0000 0400 0000 0400 0000 0400 0000
000000d0: 0400 0000 0400 0000 0400 0000 0400 0000
000000e0: 0400 0000 0400 0000 0400 0000 0400 0000
000000f0: 0400 0000 0400 0000 0400 0000 0400 0000
00000100: 0400 0000 0400 0000 0400 0000 0400 0000
00000110: 0400 0000 0400 0000 0400 0000 0400 0000
00000120: 0400 0000 0400 0000 0400 0000 0400 0000
00000130: 0400 0000 0400 0000 0400 0000 0400 0000
00000140: 0400 0000 0400 0000 0400 0000 0400 0000
00000150: 0400 0000 0400 0000 0400 0000 169a dc40
00000160: 0400 0000 0400 0000 0400 0000 0400 0000
00000170: 0400 0000 0400 0000 0400 0000 0400 0000
00000180: 0400 0000 0400 0000 0400 0000 0400 0000

fc2.weight f4 [50, 100]
-5.9e-44 -2.2e-43 -2.05e-43 5.31e-43 -7e-44 -2.1e-44 -1.99e-43 -3.14e-43
-5.3e-43 1.98e-43 3.34e-43 4.18e-43 2.7e-43 -3.76e-43 8.8e-44 -7.4e-44
-3.05e-43 -5.52e-43 2.4e-43 -3.6e-43 -2.52e-43 4.82e-43 4e-43 -3.15e-43
-2.09e-43 -1.4e-43 4.39e-43 -4.29e-43 -4.75e-43 -1.29e-43 -3.5e-44 9.1e-44
-6.4e-44 -1e-43 4.54e-43 -5.31e-43 -4.62e-43 3.17e-43 4.53e-43 -1.1e-44
-5e-43 -5.87e-43 3.14e-43 -5.69e-43 -6.01e-43 5.51e-43 -4.26e-43 -2.05e-43
-5e-43 5.32e-43 -2.84e-43 -3.78e-43 2.84e-43 -4.1e-43 2.96e-43 -5.96e-43
-4.32e-43 -5.97e-43 5.48e-43 -3.4e-43 1.7e-44 2e-44 1.49e-43 5.54e-43
2.91e-43 -5.4e-43 5.28e-43 -3.92e-43 -3.6e-44 -5.86e-43 -3.21e-43 4.99e-43
-5.2e-43 -1.7e-43 -8e-44 2e-44 -4.04e-43 -1.71e-43 -6.22e-43 2.97e-43
-3.66e-43 -1.67e-43 1.42e-43 -2.63e-43 5.72e-43 -2.79e-43 -2.44e-43 -4.39e-43
2.94e-43 -5.94e-43 5.06e-43 1.35e-43 2.35e-43 3.78e-43 3.56e-43 9.8e-44
3.91e-43 1.64e-43 -3.31e-43 -1.7e-43 1.84e-43 2.93e-43 4.3e-43 3.2e-44
3.52e-43 1.42e-43 4.41e-43 4.3e-44 -4.86e-43 -5.84e-43 -5.58e-43 -3.94e-43
1.32e-43 -2.98e-43 6.24e-43 -5.37e-43 -2.9e-43 4.46e-43 -5.17e-43 -1.1e-44
3.55e-43 -6.12e-43 -1.33e-43 2.62e-43 -5.76e-43 6e-43 -6.33e-43 -2.03e-43
1.22e-43 6.2e-43 -2.4e-43 5.07e-43 3.9e-44 5.65e-43 5.54e-43 -2.72e-43
4.71e-43 -8.3e-44 9.5e-44 3.91e-43 -5.2e-44 1.36e-43 5.45e-43 1.35e-43
2.55e-43 4.02e-43 9.7e-44 5.44e-43 -1.29e-43 -2.52e-43 2.56e-43 -6.11e-43
-5.04e-43 -2.58e-43 -6.03e-43 2.96e-43 -2.75e-43 5.37e-43 -1.3e-43 -4.34e-43
-5.75e-43 2.44e-43 -2.19e-43 -2.63e-43 -3.2e-43 4.5e-44 3.18e-43 -3.8e-43
-6.35e-43 6.4e-44 -4.67e-43 -4.34e-43 -5.8e-43 -4.9e-44 2.52e-43 -5.13e-43
-2.34e-43 -2.02e-43 2.94e-43 -3.43e-43 2.06e-43 -4.53e-43 -3.66e-43 -4.5e-43
4.72e-43 2.89e-43 4.36e-43 5.03e-43 1.02e-43 -6.32e-43 4.53e-43 -1.04e-43
-3.8e-44 4.53e-43 5.47e-43 -9.1e-44 1.51e-43 -2e-44 -1.5e-44 1.93e-43
2.68e-43 3.77e-43 -5.96e-43 -1e-45 2.65e-43 3.81e-43 5.06e-43 4.05e-43
6.07e-43 3.42e-43 -4.44e-43 4.41e-43 2.02e-43 -2.4e-43 2.93e-43 -5.47e-43
2.38e-43 2.41e-43 3.97e-43 -4.55e-43 5.72e-43 3.2e-44 -2.4e-44 4.22e-43
-2.52e-43 2.94e-43 -7.7e-44 -4.44e-43 -1.7e-44 -4.48e-43 2.5e-43 2.83e-43
-4e-45 -5.62e-43 -4.41e-43 -5.4e-43 -4.6e-44 3.85e-43 -5.2e-43 -2.44e-43
2.84e-43 -5.96e-43 -3.48e-43 1.78e-43 -2.13e-43 -2.44e-43 5.9e-44 1.19e-43
2.62e-43 -1.3e-44 -1.93e-43 -3.64e-43 -1.56e-43 -3.17e-43 5.89e-43 3.45e-43
00000000: 2a00 0080 9d00 0080 9200 0080 7b01 0000
00000010: 3200 0080 0f00 0080 8e00 0080 e000 0080
00000020: 7a01 0080 8d00 0000 ee00 0000 2a01 0000
00000030: c100 0000 0c01 0080 3f00 0000 3500 0080
00000040: da00 0080 8a01 0080 ab00 0000 0101 0080
00000050: b400 0080 5801 0000 1d01 0000 e100 0080
00000060: 9500 0080 6400 0080 3901 0000 3201 0080
00000070: 5301 0080 5c00 0080 1900 0080 4100 0000
00000080: 2e00 0080 4700 0080 4401 0000 7b01 0080
00000090: 4a01 0080 e200 0000 4301 0000 0800 0080
000000a0: 6501 0080 a301 0080 e000 0000 9601 0080
000000b0: ad01 0080 8901 0000 3001 0080 9200 0080
000000c0: 6501 0080 7c01 0000 cb00 0080 0e01 0080
000000d0: cb00 0000 2501 0080 d300 0000 a901 0080
000000e0: 3401 0080 aa01 0080 8701 0000 f300 0080
000000f0: 0c00 0000 0e00 0000 6a00 0000 8b01 0000
00000100: d000 0000 8101 0080 7901 0000 1801 0080
00000110: 1a00 0080 a201 0080 e500 0080 6401 0000
00000120: 7301 0080 7900 0080 3900 0080 0e00 0000
00000130: 2001 0080 7a00 0080 bc01 0080 d400 0000
00000140: 0501 0080 7700 0080 6500 0000 bc00 0080
00000150: 9801 0000 c700 0080 ae00 0080 3901 0080
00000160: d200 0000 a801 0080 6901 0000 6000 0000
00000170: a800 0000 0e01 0000 fe00 0000 4600 0000
00000180: 1701 0000 7500 0000 ec00 0080 7900 0080
00000190: 8300 0000 d100 0000 3301 0000 1700 0000
000001a0: fb00 0000 6500 0000 3b01 0000 1f00 0000
000001b0: 5b01 0080 a101 0080 8e01 0080 1901 0080
000001c0: 5e00 0000 d500 0080 bd01 0000 7f01 0080
000001d0: cf00 0080 3e01 0000 7101 0080 0800 0080
000001e0: fd00 0000 b501 0080 5f00 0080 bb00 0000
000001f0: 9b01 0080 ac01 0000 c401 0080 9100 0080
00000200: 5700 0000 ba01 0000 ab00 0080 6a01 0000
00000210: 1c00 0000 9301 0000 8b01 0000 c200 0080
00000220: 5001 0000 3b00 0080 4400 0000 1701 0000
00000230: 2500 0080 6100 0000 8501 0000 6000 0000
00000240: b600 0000 1f01 0000 4500 0000 8401 0000
00000250: 5c00 0080 b400 0080 b700 0000 b401 0080
00000260: 6801 0080 b800 0080 ae01 0080 d300 0000
00000270: c400 0080 7f01 0000 5d00 0080 3601 0080
00000280: 9a01 0080 ae00 0000 9c00 0080 bc00 0080
00000290: e400 0080 2000 0000 e300 0000 0f01 0080
000002a0: c501 0080 2e00 0000 4d01 0080 3601 0080
000002b0: 9e01 0080 2300 0080 b400 0000 6e01 0080
000002c0: a700 0080 9000 0080 d200 0000 f500 0080
000002d0: 9300 0000 4301 0080 0501 0080 4101 0080
000002e0: 5101 0000 ce00 0000 3701 0000 6701 0000
000002f0: 4900 0000 c301 0080 4301 0000 4a00 0080
00000300: 1b00 0080 4301 0000 8601 0000 4100 0080
00000310: 6c00 0000 0e00 0080 0b00 0080 8a00 0000
00000320: bf00 0000 0d01 0000 a901 0080 0100 0080
00000330: bd00 0000 1001 0000 6901 0000 2101 0000
00000340: b101 0000 f400 0000 3d01 0080 3b01 0000
00000350: 9000 0000 ab00 0080 d100 0000 8601 0080
00000360: aa00 0000 ac00 0000 1b01 0000 4501 0080
00000370: 9801 0000 1700 0000 1100 0080 2d01 0000
00000380: b400 0080 d200 0000 3700 0080 3d01 0080
00000390: 0c00 0080 4001 0080 b200 0000 ca00 0000
000003a0: 0300 0080 9101 0080 3b01 0080 8101 0080
000003b0: 2100 0080 1301 0000 7301 0080 ae00 0080
000003c0: cb00 0000 a901 0080 f800 0080 7f00 0000
000003d0: 9800 0080 ae00 0080 2a00 0000 5500 0000
000003e0: bb00 0000 0900 0080 8a00 0080 0401 0080
000003f0: 6f00 0080 e200 0080 a401 0000 f600 0000

fc2.bias f4 [50]
3.97e-43 3.95e-43 -5.13e-43 -1.63e-43 -3.4e-43 -1.92e-43 -4.1e-43 4.96e-43
2.35e-43 5.91e-43 -3.39e-43 -5.72e-43 1.61e-43 -4.4e-43 -3.39e-43 -2.56e-43
-2.52e-43 -1.05e-43 -2.7e-44 6.25e-43 -1.42e-43 4.68e-43 1.81e-43 5.59e-43
4.95e-43 -4.6e-44 -2.21e-43 2.94e-43 3.31e-43 -3.76e-43 3.34e-43 2.91e-43
-8.354193e-06 1.56e-43 -2.4e-44 -4e-45 -7.6e-44 1.88e-43 -4.34e-43 -4.18e-43
4.99e-43 -1.93e-43 6.29e-43 3.36e-43 8e-45 -1.72e-43 -1.25e-43 -2.34e-43
4.9e-43 -5.82e-43
00000000: 1b01 0000 1a01 0000 6e01 0080 7400 0080
00000010: f300 0080 8900 0080 2501 0080 6201 0000
00000020: a800 0000 a601 0000 f200 0080 9801 0080
00000030: 7300 0000 3a01 0080 f200 0080 b700 0080
00000040: b400 0080 4b00 0080 1300 0080 be01 0000
00000050: 6500 0080 4e01 0000 8100 0000 8f01 0000
00000060: 6101 0000 2100 0080 9e00 0080 d200 0000
00000070: ec00 0000 0c01 0080 ee00 0000 d000 0000
00000080: fc28 0cb7 6f00 0000 1100 0080 0300 0080
00000090: 3600 0080 8600 0000 3601 0080 2a01 0080
000000a0: 6401 0000 8a00 0080 c101 0000 f000 0000
000000b0: 0600 0000 7b00 0080 5900 0080 a700 0080
000000c0: 5e01 0000 9f01 0080

bn2.weight f4 [50]
6e-45 -1.29e-43 2.41e-43 -4.6e-43 -4.9e-44 3e-45 -4.37e-43 -2.9032553e-21
2.65e-43 -5.31e-43 3.35e-43 -3.5e-43 2.13e-43 -3.59e-43 -6.24e-43 -3.67e-43
-2.37e-43 -1.02e-43 -2.83e-43 -8.0866177e-32 -6e-43 -4.71e-43 -3.27e-43 -4.27e-43
1.92e-43 1.16e-43 -4.34e-43 -8.4e-44 5.66e-43 -2.86e-43 -3e-43 -1.08e-43
0.17882271 -5.3e-44 -3.24e-43 -1.9e-43 2.17e-43 3.5373232e-38 2.91e-43 2.27e-43
6e-43 -3.9e-44 4.39e-43 9.4e-44 4.1e-43 1.82e-43 5.75e-43 5.5e-43
6.03e-43 -7.3e-44
00000000: 0400 0000 5c00 0080 ac00 0000 4801 0080
00000010: 2300 0080 0200 0000 3801 0080 205d 5b9d
00000020: bd00 0000 7b01 0080 ef00 0000 fa00 0080
00000030: 9800 0000 0001 0080 bd01 0080 0601 0080
00000040: a900 0080 4900 0080 ca00 0080 cbf0 d18b
00000050: ac01 0080 5001 0080 e900 0080 3101 0080
00000060: 8900 0000 5300 0000 3601 0080 3c00 0080
00000070: 9401 0000 cc00 0080 d600 0080 4d00 0080
00000080: 4d1d 373e 2600 0080 e700 0080 8800 0080
00000090: 9b00 0000 1797 4001 d000 0000 a200 0000
000000a0: ac01 0000 1c00 0080 3901 0000 4300 0000
000000b0: 2501 0000 8200 0000 9a01 0000 8801 0000
000000c0: ae01 0000 3400 0080

bn2.bias f4 [50]
5.79e-43 7.3e-44 -2.27e-43 -6.7e-44 1.08e-43 -1.61e-43 -2.2e-44 -3.73e-43
-3.1e-44 -1.23e-43 -6.3e-44 2.86e-43 2.38e-43 2.26e-43 2.63e-43 1.12e-43
-1.63e-43 -4.15e-43 -6.28e-43 -2.5196896e-34 -7.8e-44 5.25e-43 2.4e-43 3e-43
-4.72e-43 5.14e-43 6.33e-43 5.24e-43 -1.08e-43 3.57e-43 -5.83e-43 -8e-44
0.30819166 6.04e-43 6.26e-43 -2.17e-43 -2.2e-44 1.92e-43 -3.27e-43 2.26e-43
1.46e-43 1.54e-43 4e-45 -2.33e-43 -3.92e-43 1.61e-43 -2.31e-43 -2.44e-43
-1.54e-43 6.08e-43
00000000: 9d01 0000 3400 0000 a200 0080 3000 0080
00000010: 4d00 0000 7300 0080 1000 0080 0a01 0080
00000020: 1600 0080 5800 0080 2d00 0080 cc00 0000
00000030: aa00 0000 a100 0000 bc00 0000 5000 0000
00000040: 7400 0080 2801 0080 c001 0080 4c76 a787
00000050: 3800 0080 7701 0000 ab00 0000 d600 0000
00000060: 5101 0080 6f01 0000 c401 0000 7601 0000
00000070: 4d00 0080 ff00 0000 a001 0080 3900 0080
00000080: 4ccb 9d3e af01 0000 bf01 0000 9b00 0080
00000090: 1000 0080 8900 0000 e900 0080 a100 0000
000000a0: 6800 0000 6e00 0000 0300 0000 a600 0080
000000b0: 1801 0080 7300 0000 a500 0080 ae00 0080
000000c0: 6e00 0080 b201 0000

bn2.running_mean f4 [50]
3.42e-43 4.5e-43 -5.6e-43 -2.05e-43 -3.83e-43 -2.48e-43 -3.56e-43 4.4e-43
2.9e-43 6.08e-43 -3.94e-43 -5.16e-43 2.03e-43 -4.93e-43 -2.83e-43 -2.02e-43
-2.1e-43 -5e-44 2.8e-44 6.12e-43 -1.84e-43 4.26e-43 2.37e-43 5.04e-43
4.8e-43 -1.02e-43 -2.63e-43 3.49e-43 3.85e-43 -4.02e-43 3.88e-43 2.63e-43
-0.014347548 1.01e-43 1.7e-44 5.2e-44 -9e-44 2.3e-43 -3.78e-43 -3.62e-43
4.43e-43 -1.51e-43 6.14e-43 3.78e-43 -4.6e-44 -1.18e-43 -1.81e-43 -1.8e-43
4.34e-43 -5.27e-43
00000000: f400 0000 4101 0000 9001 0080 9200 0080
00000010: 1101 0080 b100 0080 fe00 0080 3a01 0000
00000020: cf00 0000 b201 0000 1901 0080 7001 0080
00000030: 9100 0000 6001 0080 ca00 0080 9000 0080
00000040: 9600 0080 2400 0080 1400 0000 b501 0000
00000050: 8300 0080 3001 0000 a900 0000 6801 0000
00000060: 5701 0000 4900 0080 bc00 0080 f900 0000
00000070: 1301 0000 1f01 0080 1501 0000 bc00 0000
00000080: fa11 6bbc 4800 0000 0c00 0000 2500 0000
00000090: 4000 0080 a400 0000 0e01 0080 0201 0080
000000a0: 3c01 0000 6c00 0080 b601 0000 0e01 0000
000000b0: 2100 0080 5400 0080 8100 0080 8000 0080
000000c0: 3601 0000 7801 0080

bn2.running_var f4 [50]
6e-45 6e-45 6e-45 6e-45 6e-45 6e-45 6e-45 6e-45
6e-45 6e-45 6e-45 6e-45 6e-45 6e-45 6e-45 6e-45
6e-45 6e-45 6e-45 6e-45 6e-45 6e-45 6e-45 6e-45
6e-45 6e-45 6e-45 6e-45 6e-45 6e-45 6e-45 6e-45
3.1779833e-05 6e-45 6e-45 6e-45 6e-45 6e-45 6e-45 6e-45
6e-45 6e-45 6e-45 6e-45 6e-45 6e-45 6e-45 6e-45
6e-45 6e-45
00000000: 0400 0000 0400 0000 0400 0000 0400 0000
00000010: 0400 0000 0400 0000 0400 0000 0400 0000
00000020: 0400 0000 0400 0000 0400 0000 0400 0000
00000030: 0400 0000 0400 0000 0400 0000 0400 0000
00000040: 0400 0000 0400 0000 0400 0000 0400 0000
00000050: 0400 0000 0400 0000 0400 0000 0400 0000
00000060: 0400 0000 0400 0000 0400 0000 0400 0000
00000070: 0400 0000 0400 0000 0400 0000 0400 0000
00000080: 564b 0538 0400 0000 0400 0000 0400 0000
00000090: 0400 0000 0400 0000 0400 0000 0400 0000
000000a0: 0400 0000 0400 0000 0400 0000 0400 0000
000000b0: 0400 0000 0400 0000 0400 0000 0400 0000
000000c0: 0400 0000 0400 0000

fc3.weight f4 [25, 50]
-2.55e-43 2.19e-43 1.54e-43 -3.1e-43 3.66e-43 -9.7e-44 3.63e-43 4.55e-43
6.24e-43 2.62e-43 4.67e-43 -7.6e-44 -6.6e-44 2.48e-43 4.05e-43 -3e-45
-9.4e-44 1.43e-43 5.42e-43 -2.2e-44 -4.44e-43 5.03e-43 -6.03e-43 3.78e-43
2.8e-44 4.82e-43 4.65e-43 4.1e-43 5.13e-43 2.68e-43 7.8e-44 5.6e-43
0.09897804 -1.67e-43 -4.58e-43 4.3e-44 4.79e-43 5.55e-43 -7.6e-44 -4.9e-44
1.22e-43 7.6e-44 1.77e-43 4.93e-43 -2.84e-43 3.14e-43 3.52e-43 4.2e-44
7.6e-44 -3.15e-43 -3.48e-43 1.82e-43 -1.47e-43 5.34e-43 -3.64e-43 -5.68e-43
-1.98e-43 1.01e-43 -7.1e-44 1.5e-44 2.8e-43 6.24e-43 1.43e-43 -4.7e-43
-2.47e-43 5.6e-43 -4.46e-43 3.42e-43 3.2e-44 -1.58e-43 2.87e-43 5.9e-44
-2.97e-43 -4.37e-43 -2.8e-44 -2.27e-43 -3.05e-43 -2.02e-43 -4.36e-43 -5.76e-43
-5.9e-44 -1.11e-43 4.74e-43 -3.1e-44 2.73e-43 3e-44 -4.34e-43 3.31e-43
-5.42e-43 -4.53e-43 -5.86e-43 -6.3e-44 -8.8e-44 5.02e-43 -2.9e-43 -2.63e-43
1.8e-43 4.37e-43 5.23e-43 -4.9e-44 4.88e-43 5.4e-43 2.31e-43 1.15e-43
-4.67e-43 -6.2e-43 -1.26e-43 -4.46e-43 2.7e-43 -4.96e-43 4.26e-43 -1.57e-43
4.18e-43 2.7e-43 -2.16e-43 -4.12e-43 3.3e-43 2.21e-43 2.2e-43 -6.15e-43
-6.15e-43 -3.56e-43 8e-45 -6.3e-43 3.98e-43 9.4e-44 2.41e-43 2.3e-43
-3.08e-43 7.6e-44 2.41e-43 3.21e-43 -4.65e-43 6.2e-43 2.62e-43 5.38e-43
-1.71e-43 1.35e-43 3.63e-43 3.6e-44 -1.02e-43 -5.41e-43 6.35e-43 9.8e-44
-3.6e-43 -2.31e-43 5.62e-43 -1.35e-43 3.88e-43 4.37e-43 1.46e-43 2.21e-43
8.5e-44 8e-44 4.7e-43 -3.71e-43 -2.91e-43 -2.41e-43 -4.3e-43 -4.01e-43
-4.75e-43 3.12e-43 2.47e-43 1.9e-43 -8.8e-44 2.37e-43 2.42e-43 8.5e-44
-1.23e-43 -3.43e-43 4.33e-43 2.48e-43 -6.2e-44 -2.28e-43 -5.98e-43 -5.87e-43
1.8e-44 4.47e-43 3.1e-44 -5.8e-43 7.8e-44 3.1e-44 0.110619545 -6e-45
1.53e-43 4.64e-43 4.06e-43 -4.39e-43 2.31e-43 4.93e-43 -3.2e-43 -4.26e-43
-6.3e-44 -6e-44 4.92e-43 -2.06e-43 -2.93e-43 -1.95e-43 1.47e-43 -5.58e-43
-5.5e-43 -5.31e-43 4.48e-43 7e-45 3.34e-43 -4.99e-43 -3.31e-43 -1.6e-43
4.05e-43 -4.64e-43 -5.94e-43 4.47e-43 -1.54e-43 -4.8e-44 4.19e-43 -5.35e-43
-5.72e-43 3.5e-43 -1.9e-43 -5.2e-44 9.1e-44 5.98e-43 8.1e-44 2.4e-44
2.24e-43 1.4e-43 6.21e-43 1.47e-43 4.2e-44 -1.46e-43 1.77e-43 -6.26e-43
-0.122615896 -4.88e-43 -4.29e-43 -2.07e-43 2.31e-43 -3.11e-43 -4.9e-44 -4.15e-43
9.5e-44 -5.6e-44 5.7e-44 -3.48e-43 -2e-44 3e-43 2.8e-43 -5.55e-43
2.56e-43 6.21e-43 -1.98e-43 1.85e-43 -1.5e-44 -1.65e-43 -2.27e-43 3.48e-43
00000000: b600 0080 9c00 0000 6e00 0000 dd00 0080
00000010: 0501 0000 4500 0080 0301 0000 4501 0000
00000020: bd01 0000 bb00 0000 4d01 0000 3600 0080
00000030: 2f00 0080 b100 0000 2101 0000 0200 0080
00000040: 4300 0080 6600 0000 8301 0000 1000 0080
00000050: 3d01 0080 6701 0000 ae01 0080 0e01 0000
00000060: 1400 0000 5801 0000 4c01 0000 2501 0000
00000070: 6e01 0000 bf00 0000 3800 0000 9001 0000
00000080: 00b5 ca3d 7700 0080 4701 0080 1f00 0000
00000090: 5601 0000 8c01 0000 3600 0080 2300 0080
000000a0: 5700 0000 3600 0000 7e00 0000 6001 0000
000000b0: cb00 0080 e000 0000 fb00 0000 1e00 0000
000000c0: 3600 0000 e100 0080 f800 0080 8200 0000
000000d0: 6900 0080 7d01 0000 0401 0080 9501 0080
000000e0: 8d00 0080 4800 0000 3300 0080 0b00 0000
000000f0: c800 0000 bd01 0000 6600 0000 4f01 0080
00000100: b000 0080 9001 0000 3e01 0080 f400 0000
00000110: 1700 0000 7100 0080 cd00 0000 2a00 0000
00000120: d400 0080 3801 0080 1400 0080 a200 0080
00000130: da00 0080 9000 0080 3701 0080 9b01 0080
00000140: 2a00 0080 4f00 0080 5201 0000 1600 0080
00000150: c300 0000 1500 0000 3601 0080 ec00 0000
00000160: 8301 0080 4301 0080 a201 0080 2d00 0080
00000170: 3f00 0080 6601 0000 cf00 0080 bc00 0080
00000180: 8000 0000 3801 0000 7501 0000 2300 0080
00000190: 5c01 0000 8101 0000 a500 0000 5200 0000
000001a0: 4d01 0080 ba01 0080 5a00 0080 3e01 0080
000001b0: c100 0000 6201 0080 3001 0000 7000 0080
000001c0: 2a01 0000 c100 0000 9a00 0080 2601 0080
000001d0: eb00 0000 9e00 0000 9d00 0000 b701 0080
000001e0: b701 0080 fe00 0080 0600 0000 c201 0080
000001f0: 1c01 0000 4300 0000 ac00 0000 a400 0000
00000200: dc00 0080 3600 0000 ac00 0000 e500 0000
00000210: 4c01 0080 ba01 0000 bb00 0000 8001 0000
00000220: 7a00 0080 6000 0000 0301 0000 1a00 0000
00000230: 4900 0080 8201 0080 c501 0000 4600 0000
00000240: 0101 0080 a500 0080 9101 0000 6000 0080
00000250: 1501 0000 3801 0000 6800 0000 9e00 0000
00000260: 3d00 0000 3900 0000 4f01 0000 0901 0080
00000270: d000 0080 ac00 0080 3301 0080 1e01 0080
00000280: 5301 0080 df00 0000 b000 0000 8800 0000
00000290: 3f00 0080 a900 0000 ad00 0000 3d00 0000
000002a0: 5800 0080 f500 0080 3501 0000 b100 0000
000002b0: 2c00 0080 a300 0080 ab01 0080 a301 0080
000002c0: 0d00 0000 3f01 0000 1600 0000 9e01 0080
000002d0: 3800 0000 1600 0000 808c e23d 0400 0080
000002e0: 6d00 0000 4b01 0000 2201 0000 3901 0080
000002f0: a500 0000 6001 0000 e400 0080 3001 0080
00000300: 2d00 0080 2b00 0080 5f01 0000 9300 0080
00000310: d100 0080 8b00 0080 6900 0000 8e01 0080
00000320: 8801 0080 7b01 0080 4001 0000 0500 0000
00000330: ee00 0000 6401 0080 ec00 0080 7200 0080
00000340: 2101 0000 4b01 0080 a801 0080 3f01 0000
00000350: 6e00 0080 2200 0080 2b01 0000 7e01 0080
00000360: 9801 0080 fa00 0000 8800 0080 2500 0080
00000370: 4100 0000 ab01 0000 3a00 0000 1100 0000
00000380: a000 0000 6400 0000 bb01 0000 6900 0000
00000390: 1e00 0000 6800 0080 7e00 0000 bf01 0080
000003a0: 0b1e fbbd 5c01 0080 3201 0080 9400 0080
000003b0: a500 0000 de00 0080 2300 0080 2801 0080
000003c0: 4400 0000 2800 0080 2900 0000 f800 0080
000003d0: 0e00 0080 d600 0000 c800 0000 8c01 0080
000003e0: b700 0000 bb01 0000 8d00 0080 8400 0000
000003f0: 0b00 0080 7600 0080 a200 0080 f800 0000

fc3.bias f4 [25]
3.1850968e-07 5.35e-43 -6.17e-43 5.755716e-07 -7.4431716e-07 4.01e-43 4.2926935e-08 3.91e-43
3.88e-43 5.3e-43 1.2771948e-06 -5.68e-43 5.10578e-07 -4.1e-43 -6.33e-43 -1.9609834e-08
-6.099114e-07 -5.34e-43 5.7e-44 2.09e-43 2.4006783e-07 -1.1470519e-06 1.01e-43 -2.4812127e-07
-2.4007355e-07
00000000: a3ff aa34 7e01 0000 b801 0080 fb80 1a35
00000010: 16cd 47b5 1e01 0000 aa5e 3833 1701 0000
00000020: 1501 0000 7a01 0000 146c ab35 9501 0080
00000030: a70e 0935 2501 0080 c401 0080 7b72 a8b2
00000040: cbb8 23b5 7d01 0080 2900 0000 9500 0000
00000050: ace2 8034 67f4 99b5 4800 0000 8735 85b4
00000060: 75e3 80b4

bn3.weight f4 [25]
0.48972884 2.07e-43 7e-45 0.6078896 0.7476502 -1.53e-43 0.2956985 2.24e-43
4.5896425e-31 -1.56e-43 0.78627086 -2.72e-43 0.45833576 1.78e-43 7.8e-44 0.20302756
0.5843883 2.44e-43 6.25e-43 -5.48e-43 0.2565984 0.70700127 3.1e-43 0.23662111
0.48022735
00000000: bdbd fa3e 9400 0000 0500 0000 a79e 1b3f
00000010: 0166 3f3f 6d00 0080 cb65 973e a000 0000
00000020: 42f1 140d 6f00 0080 0c49 493f c200 0080
00000030: fcaa ea3e 7f00 0000 3800 0000 75e6 4f3e
00000040: 799a 153f ae00 0000 be01 0000 8701 0080
00000050: de60 833e 09fe 343f dd00 0000 ce4c 723e
00000060: 5ce0 f53e

bn3.bias f4 [25]
0.3231377 -3.18e-43 -4e-44 0.40258294 0.45185953 -4.79e-43 0.19607605 -9.7e-44
7.8663115e-10 -3.21e-43 0.5219372 -2.1e-43 0.30253097 1.8e-44 -2.3e-43 0.12327667
0.3531053 -1.29e-43 -5.23e-43 -6.3e-43 0.17368497 0.42714342 -5.56e-43 0.14326562
0.28976703
00000000: 4e72 a53e e300 0080 1d00 0080 5a1f ce3e
00000010: 225a e73e 5601 0080 29c8 483e 4500 0080
00000020: 3f3a 5830 e500 0080 ad9d 053f 9600 0080
00000030: 57e5 9a3e 0d00 0000 a400 0080 7b78 fc3d
00000040: 38ca b43e 5c00 0080 7501 0080 c201 0080
00000050: 79da 313e 8bb2 da3e 8d01 0080 39b4 123e
00000060: 585c 943e

bn3.running_mean f4 [25]
0.03053801 4.93e-43 -6.14e-43 0.034115408 -0.037824553 3.45e-43 0.023496361 4.47e-43
2.026673e-39 5.75e-43 0.038935892 -5.97e-43 0.029502712 -4.67e-43 -5.77e-43 -0.019373193
-0.03341886 -5.7e-43 3e-45 2.65e-43 0.021896249 -0.03678944 1.56e-43 -0.020992558
-0.030236697
00000000: d92a fa3c 6001 0000 b601 0080 99bc 0b3d
00000010: ebed 1abd f600 0000 717b c03c 3f01 0000
00000020: 8a11 1600 9a01 0000 3e7b 1f3d aa01 0080
00000030: acaf f13c 4d01 0080 9c01 0080 88b4 9ebc
00000040: 37e2 08bd 9701 0080 0200 0000 bd00 0000
00000050: c35f b33c 86b0 16bd 6f00 0000 96f8 abbc
00000060: f3b2 f7bc

bn3.running_var f4 [25]
0.00024254575 6e-45 6e-45 0.00030269715 0.0003720933 6e-45 0.00014358899 6e-45
6e-45 6e-45 0.00039426942 6e-45 0.0002263758 6e-45 6e-45 9.761637e-05
0.00029046158 6e-45 6e-45 6e-45 0.0001246957 0.00035199872 6e-45 0.000114615075
0.00023778425
00000000: e153 7e39 0400 0000 0400 0000 53b3 9e39
00000010: 8415 c339 0400 0000 6090 1639 0400 0000
00000020: 0400 0000 0400 0000 f2b5 ce39 0400 0000
00000030: 4b5f 6d39 0400 0000 0400 0000 64b7 cc38
00000040: 1849 9839 0400 0000 0400 0000 0400 0000
00000050: bfc0 0239 788c b839 0400 0000 805d f038
00000060: b955 7939

fc4.weight f4 [1, 25]
-0.5843606 6.3e-44 2.55e-43 -0.7263256 0.87502176 5.68e-43 -0.35353717 2.24e-43
-6.692438e-11 -9e-44 -0.9408939 -1.22e-43 -0.54659164 4.05e-43 -1.42e-43 0.23720628
0.6831043 -4.96e-43 3.73e-43 8e-44 -0.30881333 0.8270429 -2.35e-43 0.276154
0.5609912
00000000: a898 15bf 2d00 0000 b600 0000 79f0 39bf
00000010: 6d01 603f 9501 0000 d302 b5be a000 0000
00000020: 142b 93ae 4000 0080 6cde 70bf 5700 0080
00000030: 6eed 0bbf 2101 0000 6500 0080 34e6 723e
00000040: ecdf 2e3f 6201 0080 0a01 0000 3900 0000
00000050: c81c 9ebe 15b9 533f a800 0080 0f64 8d3e
00000060: 1f9d 0f3f
